7767517
918 1132
Input                    x                        0 1 x
Split                    resize_ref_dym_0         1 0 x 
Split                    resize_ref_dym_0         1 28 x resize_ref_0 resize_ref_1 resize_ref_2 resize_ref_3 resize_ref_4 resize_ref_5 resize_ref_6 resize_ref_7 resize_ref_8 resize_ref_9 resize_ref_10 resize_ref_11 resize_ref_12 resize_ref_13 resize_ref_14 resize_ref_15 resize_ref_16 resize_ref_17 resize_ref_18 resize_ref_19 resize_ref_20 resize_ref_21 resize_ref_22 resize_ref_23 resize_ref_24 resize_ref_25 resize_ref_26 resize_ref_27
Split                    splitncnn_input0         1 4 x x_splitncnn_0 x_splitncnn_1 x_splitncnn_2 x_splitncnn_3
Convolution              p2o.Conv.0               1 1 x_splitncnn_3 relu_0.tmp_0 0=64 1=3 3=2 4=-233 5=1 6=1728 9=1
Split                    splitncnn_0              1 2 relu_0.tmp_0 relu_0.tmp_0_splitncnn_0 relu_0.tmp_0_splitncnn_1
Convolution              p2o.Conv.1               1 1 relu_0.tmp_0_splitncnn_1 relu_1.tmp_0 0=64 1=3 3=2 4=-233 5=1 6=36864 9=1
Split                    splitncnn_1              1 2 relu_1.tmp_0 relu_1.tmp_0_splitncnn_0 relu_1.tmp_0_splitncnn_1
Convolution              p2o.Conv.2               1 1 relu_1.tmp_0_splitncnn_1 relu_2.tmp_0 0=64 1=1 4=-233 5=1 6=4096 9=1
Convolution              p2o.Conv.3               1 1 relu_2.tmp_0 relu_3.tmp_0 0=64 1=3 4=-233 5=1 6=36864 9=1
Convolution              p2o.Conv.4               1 1 relu_3.tmp_0 conv2d_332.tmp_0 0=256 1=1 4=-233 5=1 6=16384
Convolution              p2o.Conv.5               1 1 relu_1.tmp_0_splitncnn_0 conv2d_333.tmp_0 0=256 1=1 4=-233 5=1 6=16384
BinaryOp                 p2o.Add.0                2 1 conv2d_332.tmp_0 conv2d_333.tmp_0 p2o.Add.1
ReLU                     p2o.Relu.4               1 1 p2o.Add.1 relu_4.tmp_0
Split                    splitncnn_2              1 2 relu_4.tmp_0 relu_4.tmp_0_splitncnn_0 relu_4.tmp_0_splitncnn_1
Convolution              p2o.Conv.6               1 1 relu_4.tmp_0_splitncnn_1 relu_5.tmp_0 0=64 1=1 4=-233 5=1 6=16384 9=1
Convolution              p2o.Conv.7               1 1 relu_5.tmp_0 relu_6.tmp_0 0=64 1=3 4=-233 5=1 6=36864 9=1
Convolution              p2o.Conv.8               1 1 relu_6.tmp_0 conv2d_336.tmp_0 0=256 1=1 4=-233 5=1 6=16384
BinaryOp                 p2o.Add.2                2 1 conv2d_336.tmp_0 relu_4.tmp_0_splitncnn_0 p2o.Add.3
ReLU                     p2o.Relu.7               1 1 p2o.Add.3 relu_7.tmp_0
Split                    splitncnn_3              1 2 relu_7.tmp_0 relu_7.tmp_0_splitncnn_0 relu_7.tmp_0_splitncnn_1
Convolution              p2o.Conv.9               1 1 relu_7.tmp_0_splitncnn_1 relu_8.tmp_0 0=64 1=1 4=-233 5=1 6=16384 9=1
Convolution              p2o.Conv.10              1 1 relu_8.tmp_0 relu_9.tmp_0 0=64 1=3 4=-233 5=1 6=36864 9=1
Convolution              p2o.Conv.11              1 1 relu_9.tmp_0 conv2d_339.tmp_0 0=256 1=1 4=-233 5=1 6=16384
BinaryOp                 p2o.Add.4                2 1 conv2d_339.tmp_0 relu_7.tmp_0_splitncnn_0 p2o.Add.5
ReLU                     p2o.Relu.10              1 1 p2o.Add.5 relu_10.tmp_0
Split                    splitncnn_4              1 2 relu_10.tmp_0 relu_10.tmp_0_splitncnn_0 relu_10.tmp_0_splitncnn_1
Convolution              p2o.Conv.12              1 1 relu_10.tmp_0_splitncnn_1 relu_11.tmp_0 0=64 1=1 4=-233 5=1 6=16384 9=1
Convolution              p2o.Conv.13              1 1 relu_11.tmp_0 relu_12.tmp_0 0=64 1=3 4=-233 5=1 6=36864 9=1
Convolution              p2o.Conv.14              1 1 relu_12.tmp_0 conv2d_342.tmp_0 0=256 1=1 4=-233 5=1 6=16384
BinaryOp                 p2o.Add.6                2 1 conv2d_342.tmp_0 relu_10.tmp_0_splitncnn_0 p2o.Add.7
ReLU                     p2o.Relu.13              1 1 p2o.Add.7 relu_13.tmp_0
Split                    splitncnn_5              1 2 relu_13.tmp_0 relu_13.tmp_0_splitncnn_0 relu_13.tmp_0_splitncnn_1
Convolution              p2o.Conv.15              1 1 relu_13.tmp_0_splitncnn_1 relu_14.tmp_0 0=18 1=3 4=-233 5=1 6=41472 9=1
Split                    splitncnn_6              1 2 relu_14.tmp_0 relu_14.tmp_0_splitncnn_0 relu_14.tmp_0_splitncnn_1
Convolution              p2o.Conv.16              1 1 relu_13.tmp_0_splitncnn_0 relu_15.tmp_0 0=36 1=3 3=2 4=-233 5=1 6=82944 9=1
Split                    splitncnn_7              1 2 relu_15.tmp_0 relu_15.tmp_0_splitncnn_0 relu_15.tmp_0_splitncnn_1
Convolution              p2o.Conv.17              1 1 relu_14.tmp_0_splitncnn_1 relu_16.tmp_0 0=18 1=3 4=-233 5=1 6=2916 9=1
Convolution              p2o.Conv.18              1 1 relu_16.tmp_0 conv2d_346.tmp_0 0=18 1=3 4=-233 5=1 6=2916
BinaryOp                 p2o.Add.8                2 1 conv2d_346.tmp_0 relu_14.tmp_0_splitncnn_0 p2o.Add.9
ReLU                     p2o.Relu.17              1 1 p2o.Add.9 relu_17.tmp_0
Split                    splitncnn_8              1 2 relu_17.tmp_0 relu_17.tmp_0_splitncnn_0 relu_17.tmp_0_splitncnn_1
Convolution              p2o.Conv.19              1 1 relu_17.tmp_0_splitncnn_1 relu_18.tmp_0 0=18 1=3 4=-233 5=1 6=2916 9=1
Convolution              p2o.Conv.20              1 1 relu_18.tmp_0 conv2d_348.tmp_0 0=18 1=3 4=-233 5=1 6=2916
BinaryOp                 p2o.Add.10               2 1 conv2d_348.tmp_0 relu_17.tmp_0_splitncnn_0 p2o.Add.11
ReLU                     p2o.Relu.19              1 1 p2o.Add.11 relu_19.tmp_0
Split                    splitncnn_9              1 2 relu_19.tmp_0 relu_19.tmp_0_splitncnn_0 relu_19.tmp_0_splitncnn_1
Convolution              p2o.Conv.21              1 1 relu_19.tmp_0_splitncnn_1 relu_20.tmp_0 0=18 1=3 4=-233 5=1 6=2916 9=1
Convolution              p2o.Conv.22              1 1 relu_20.tmp_0 conv2d_350.tmp_0 0=18 1=3 4=-233 5=1 6=2916
BinaryOp                 p2o.Add.12               2 1 conv2d_350.tmp_0 relu_19.tmp_0_splitncnn_0 p2o.Add.13
ReLU                     p2o.Relu.21              1 1 p2o.Add.13 relu_21.tmp_0
Split                    splitncnn_10             1 2 relu_21.tmp_0 relu_21.tmp_0_splitncnn_0 relu_21.tmp_0_splitncnn_1
Convolution              p2o.Conv.23              1 1 relu_21.tmp_0_splitncnn_1 relu_22.tmp_0 0=18 1=3 4=-233 5=1 6=2916 9=1
Convolution              p2o.Conv.24              1 1 relu_22.tmp_0 conv2d_352.tmp_0 0=18 1=3 4=-233 5=1 6=2916
BinaryOp                 p2o.Add.14               2 1 conv2d_352.tmp_0 relu_21.tmp_0_splitncnn_0 p2o.Add.15
ReLU                     p2o.Relu.23              1 1 p2o.Add.15 relu_23.tmp_0
Split                    splitncnn_11             1 2 relu_23.tmp_0 relu_23.tmp_0_splitncnn_0 relu_23.tmp_0_splitncnn_1
Convolution              p2o.Conv.25              1 1 relu_15.tmp_0_splitncnn_1 relu_24.tmp_0 0=36 1=3 4=-233 5=1 6=11664 9=1
Convolution              p2o.Conv.26              1 1 relu_24.tmp_0 conv2d_354.tmp_0 0=36 1=3 4=-233 5=1 6=11664
BinaryOp                 p2o.Add.16               2 1 conv2d_354.tmp_0 relu_15.tmp_0_splitncnn_0 p2o.Add.17
ReLU                     p2o.Relu.25              1 1 p2o.Add.17 relu_25.tmp_0
Split                    splitncnn_12             1 2 relu_25.tmp_0 relu_25.tmp_0_splitncnn_0 relu_25.tmp_0_splitncnn_1
Convolution              p2o.Conv.27              1 1 relu_25.tmp_0_splitncnn_1 relu_26.tmp_0 0=36 1=3 4=-233 5=1 6=11664 9=1
Convolution              p2o.Conv.28              1 1 relu_26.tmp_0 conv2d_356.tmp_0 0=36 1=3 4=-233 5=1 6=11664
BinaryOp                 p2o.Add.18               2 1 conv2d_356.tmp_0 relu_25.tmp_0_splitncnn_0 p2o.Add.19
ReLU                     p2o.Relu.27              1 1 p2o.Add.19 relu_27.tmp_0
Split                    splitncnn_13             1 2 relu_27.tmp_0 relu_27.tmp_0_splitncnn_0 relu_27.tmp_0_splitncnn_1
Convolution              p2o.Conv.29              1 1 relu_27.tmp_0_splitncnn_1 relu_28.tmp_0 0=36 1=3 4=-233 5=1 6=11664 9=1
Convolution              p2o.Conv.30              1 1 relu_28.tmp_0 conv2d_358.tmp_0 0=36 1=3 4=-233 5=1 6=11664
BinaryOp                 p2o.Add.20               2 1 conv2d_358.tmp_0 relu_27.tmp_0_splitncnn_0 p2o.Add.21
ReLU                     p2o.Relu.29              1 1 p2o.Add.21 relu_29.tmp_0
Split                    splitncnn_14             1 2 relu_29.tmp_0 relu_29.tmp_0_splitncnn_0 relu_29.tmp_0_splitncnn_1
Convolution              p2o.Conv.31              1 1 relu_29.tmp_0_splitncnn_1 relu_30.tmp_0 0=36 1=3 4=-233 5=1 6=11664 9=1
Convolution              p2o.Conv.32              1 1 relu_30.tmp_0 conv2d_360.tmp_0 0=36 1=3 4=-233 5=1 6=11664
BinaryOp                 p2o.Add.22               2 1 conv2d_360.tmp_0 relu_29.tmp_0_splitncnn_0 p2o.Add.23
ReLU                     p2o.Relu.31              1 1 p2o.Add.23 relu_31.tmp_0
Split                    splitncnn_15             1 2 relu_31.tmp_0 relu_31.tmp_0_splitncnn_0 relu_31.tmp_0_splitncnn_1
Convolution              p2o.Conv.33              1 1 relu_31.tmp_0_splitncnn_1 conv2d_361.tmp_0 0=18 1=1 4=-233 5=1 6=648
Interp                   p2o.Resize.0              2 1 conv2d_361.tmp_0 resize_ref_0 bilinear_interp_v2_0.tmp_0 0=2  1=0.25 2=0.25 
BinaryOp                 p2o.Add.24               2 1 relu_23.tmp_0_splitncnn_1 bilinear_interp_v2_0.tmp_0 p2o.Add.25
ReLU                     p2o.Relu.32              1 1 p2o.Add.25 relu_32.tmp_0
Split                    splitncnn_16             1 2 relu_32.tmp_0 relu_32.tmp_0_splitncnn_0 relu_32.tmp_0_splitncnn_1
Convolution              p2o.Conv.34              1 1 relu_23.tmp_0_splitncnn_0 conv2d_362.tmp_0 0=36 1=3 3=2 4=-233 5=1 6=5832
BinaryOp                 p2o.Add.26               2 1 relu_31.tmp_0_splitncnn_0 conv2d_362.tmp_0 p2o.Add.27
ReLU                     p2o.Relu.33              1 1 p2o.Add.27 relu_33.tmp_0
Split                    splitncnn_17             1 3 relu_33.tmp_0 relu_33.tmp_0_splitncnn_0 relu_33.tmp_0_splitncnn_1 relu_33.tmp_0_splitncnn_2
Convolution              p2o.Conv.35              1 1 relu_33.tmp_0_splitncnn_2 relu_34.tmp_0 0=72 1=3 3=2 4=-233 5=1 6=23328 9=1
Split                    splitncnn_18             1 2 relu_34.tmp_0 relu_34.tmp_0_splitncnn_0 relu_34.tmp_0_splitncnn_1
Convolution              p2o.Conv.36              1 1 relu_32.tmp_0_splitncnn_1 relu_35.tmp_0 0=18 1=3 4=-233 5=1 6=2916 9=1
Convolution              p2o.Conv.37              1 1 relu_35.tmp_0 conv2d_365.tmp_0 0=18 1=3 4=-233 5=1 6=2916
BinaryOp                 p2o.Add.28               2 1 conv2d_365.tmp_0 relu_32.tmp_0_splitncnn_0 p2o.Add.29
ReLU                     p2o.Relu.36              1 1 p2o.Add.29 relu_36.tmp_0
Split                    splitncnn_19             1 2 relu_36.tmp_0 relu_36.tmp_0_splitncnn_0 relu_36.tmp_0_splitncnn_1
Convolution              p2o.Conv.38              1 1 relu_36.tmp_0_splitncnn_1 relu_37.tmp_0 0=18 1=3 4=-233 5=1 6=2916 9=1
Convolution              p2o.Conv.39              1 1 relu_37.tmp_0 conv2d_367.tmp_0 0=18 1=3 4=-233 5=1 6=2916
BinaryOp                 p2o.Add.30               2 1 conv2d_367.tmp_0 relu_36.tmp_0_splitncnn_0 p2o.Add.31
ReLU                     p2o.Relu.38              1 1 p2o.Add.31 relu_38.tmp_0
Split                    splitncnn_20             1 2 relu_38.tmp_0 relu_38.tmp_0_splitncnn_0 relu_38.tmp_0_splitncnn_1
Convolution              p2o.Conv.40              1 1 relu_38.tmp_0_splitncnn_1 relu_39.tmp_0 0=18 1=3 4=-233 5=1 6=2916 9=1
Convolution              p2o.Conv.41              1 1 relu_39.tmp_0 conv2d_369.tmp_0 0=18 1=3 4=-233 5=1 6=2916
BinaryOp                 p2o.Add.32               2 1 conv2d_369.tmp_0 relu_38.tmp_0_splitncnn_0 p2o.Add.33
ReLU                     p2o.Relu.40              1 1 p2o.Add.33 relu_40.tmp_0
Split                    splitncnn_21             1 2 relu_40.tmp_0 relu_40.tmp_0_splitncnn_0 relu_40.tmp_0_splitncnn_1
Convolution              p2o.Conv.42              1 1 relu_40.tmp_0_splitncnn_1 relu_41.tmp_0 0=18 1=3 4=-233 5=1 6=2916 9=1
Convolution              p2o.Conv.43              1 1 relu_41.tmp_0 conv2d_371.tmp_0 0=18 1=3 4=-233 5=1 6=2916
BinaryOp                 p2o.Add.34               2 1 conv2d_371.tmp_0 relu_40.tmp_0_splitncnn_0 p2o.Add.35
ReLU                     p2o.Relu.42              1 1 p2o.Add.35 relu_42.tmp_0
Split                    splitncnn_22             1 3 relu_42.tmp_0 relu_42.tmp_0_splitncnn_0 relu_42.tmp_0_splitncnn_1 relu_42.tmp_0_splitncnn_2
Convolution              p2o.Conv.44              1 1 relu_33.tmp_0_splitncnn_1 relu_43.tmp_0 0=36 1=3 4=-233 5=1 6=11664 9=1
Convolution              p2o.Conv.45              1 1 relu_43.tmp_0 conv2d_373.tmp_0 0=36 1=3 4=-233 5=1 6=11664
BinaryOp                 p2o.Add.36               2 1 conv2d_373.tmp_0 relu_33.tmp_0_splitncnn_0 p2o.Add.37
ReLU                     p2o.Relu.44              1 1 p2o.Add.37 relu_44.tmp_0
Split                    splitncnn_23             1 2 relu_44.tmp_0 relu_44.tmp_0_splitncnn_0 relu_44.tmp_0_splitncnn_1
Convolution              p2o.Conv.46              1 1 relu_44.tmp_0_splitncnn_1 relu_45.tmp_0 0=36 1=3 4=-233 5=1 6=11664 9=1
Convolution              p2o.Conv.47              1 1 relu_45.tmp_0 conv2d_375.tmp_0 0=36 1=3 4=-233 5=1 6=11664
BinaryOp                 p2o.Add.38               2 1 conv2d_375.tmp_0 relu_44.tmp_0_splitncnn_0 p2o.Add.39
ReLU                     p2o.Relu.46              1 1 p2o.Add.39 relu_46.tmp_0
Split                    splitncnn_24             1 2 relu_46.tmp_0 relu_46.tmp_0_splitncnn_0 relu_46.tmp_0_splitncnn_1
Convolution              p2o.Conv.48              1 1 relu_46.tmp_0_splitncnn_1 relu_47.tmp_0 0=36 1=3 4=-233 5=1 6=11664 9=1
Convolution              p2o.Conv.49              1 1 relu_47.tmp_0 conv2d_377.tmp_0 0=36 1=3 4=-233 5=1 6=11664
BinaryOp                 p2o.Add.40               2 1 conv2d_377.tmp_0 relu_46.tmp_0_splitncnn_0 p2o.Add.41
ReLU                     p2o.Relu.48              1 1 p2o.Add.41 relu_48.tmp_0
Split                    splitncnn_25             1 2 relu_48.tmp_0 relu_48.tmp_0_splitncnn_0 relu_48.tmp_0_splitncnn_1
Convolution              p2o.Conv.50              1 1 relu_48.tmp_0_splitncnn_1 relu_49.tmp_0 0=36 1=3 4=-233 5=1 6=11664 9=1
Convolution              p2o.Conv.51              1 1 relu_49.tmp_0 conv2d_379.tmp_0 0=36 1=3 4=-233 5=1 6=11664
BinaryOp                 p2o.Add.42               2 1 conv2d_379.tmp_0 relu_48.tmp_0_splitncnn_0 p2o.Add.43
ReLU                     p2o.Relu.50              1 1 p2o.Add.43 relu_50.tmp_0
Split                    splitncnn_26             1 3 relu_50.tmp_0 relu_50.tmp_0_splitncnn_0 relu_50.tmp_0_splitncnn_1 relu_50.tmp_0_splitncnn_2
Convolution              p2o.Conv.52              1 1 relu_34.tmp_0_splitncnn_1 relu_51.tmp_0 0=72 1=3 4=-233 5=1 6=46656 9=1
Convolution              p2o.Conv.53              1 1 relu_51.tmp_0 conv2d_381.tmp_0 0=72 1=3 4=-233 5=1 6=46656
BinaryOp                 p2o.Add.44               2 1 conv2d_381.tmp_0 relu_34.tmp_0_splitncnn_0 p2o.Add.45
ReLU                     p2o.Relu.52              1 1 p2o.Add.45 relu_52.tmp_0
Split                    splitncnn_27             1 2 relu_52.tmp_0 relu_52.tmp_0_splitncnn_0 relu_52.tmp_0_splitncnn_1
Convolution              p2o.Conv.54              1 1 relu_52.tmp_0_splitncnn_1 relu_53.tmp_0 0=72 1=3 4=-233 5=1 6=46656 9=1
Convolution              p2o.Conv.55              1 1 relu_53.tmp_0 conv2d_383.tmp_0 0=72 1=3 4=-233 5=1 6=46656
BinaryOp                 p2o.Add.46               2 1 conv2d_383.tmp_0 relu_52.tmp_0_splitncnn_0 p2o.Add.47
ReLU                     p2o.Relu.54              1 1 p2o.Add.47 relu_54.tmp_0
Split                    splitncnn_28             1 2 relu_54.tmp_0 relu_54.tmp_0_splitncnn_0 relu_54.tmp_0_splitncnn_1
Convolution              p2o.Conv.56              1 1 relu_54.tmp_0_splitncnn_1 relu_55.tmp_0 0=72 1=3 4=-233 5=1 6=46656 9=1
Convolution              p2o.Conv.57              1 1 relu_55.tmp_0 conv2d_385.tmp_0 0=72 1=3 4=-233 5=1 6=46656
BinaryOp                 p2o.Add.48               2 1 conv2d_385.tmp_0 relu_54.tmp_0_splitncnn_0 p2o.Add.49
ReLU                     p2o.Relu.56              1 1 p2o.Add.49 relu_56.tmp_0
Split                    splitncnn_29             1 2 relu_56.tmp_0 relu_56.tmp_0_splitncnn_0 relu_56.tmp_0_splitncnn_1
Convolution              p2o.Conv.58              1 1 relu_56.tmp_0_splitncnn_1 relu_57.tmp_0 0=72 1=3 4=-233 5=1 6=46656 9=1
Convolution              p2o.Conv.59              1 1 relu_57.tmp_0 conv2d_387.tmp_0 0=72 1=3 4=-233 5=1 6=46656
BinaryOp                 p2o.Add.50               2 1 conv2d_387.tmp_0 relu_56.tmp_0_splitncnn_0 p2o.Add.51
ReLU                     p2o.Relu.58              1 1 p2o.Add.51 relu_58.tmp_0
Split                    splitncnn_30             1 3 relu_58.tmp_0 relu_58.tmp_0_splitncnn_0 relu_58.tmp_0_splitncnn_1 relu_58.tmp_0_splitncnn_2
Convolution              p2o.Conv.60              1 1 relu_50.tmp_0_splitncnn_2 conv2d_388.tmp_0 0=18 1=1 4=-233 5=1 6=648
Interp                   p2o.Resize.1              2 1 conv2d_388.tmp_0 resize_ref_1 bilinear_interp_v2_1.tmp_0 0=2  1=0.25 2=0.25 
BinaryOp                 p2o.Add.52               2 1 relu_42.tmp_0_splitncnn_2 bilinear_interp_v2_1.tmp_0 p2o.Add.53
Convolution              p2o.Conv.61              1 1 relu_58.tmp_0_splitncnn_2 conv2d_389.tmp_0 0=18 1=1 4=-233 5=1 6=1296
Interp                   p2o.Resize.2              2 1 conv2d_389.tmp_0 resize_ref_2 bilinear_interp_v2_2.tmp_0 0=2  1=0.25 2=0.25 
BinaryOp                 p2o.Add.54               2 1 p2o.Add.53 bilinear_interp_v2_2.tmp_0 p2o.Add.55
ReLU                     p2o.Relu.59              1 1 p2o.Add.55 relu_59.tmp_0
Split                    splitncnn_31             1 2 relu_59.tmp_0 relu_59.tmp_0_splitncnn_0 relu_59.tmp_0_splitncnn_1
Convolution              p2o.Conv.62              1 1 relu_42.tmp_0_splitncnn_1 conv2d_390.tmp_0 0=36 1=3 3=2 4=-233 5=1 6=5832
BinaryOp                 p2o.Add.56               2 1 relu_50.tmp_0_splitncnn_1 conv2d_390.tmp_0 p2o.Add.57
Convolution              p2o.Conv.63              1 1 relu_58.tmp_0_splitncnn_1 conv2d_391.tmp_0 0=36 1=1 4=-233 5=1 6=2592
Interp                   p2o.Resize.3              2 1 conv2d_391.tmp_0 resize_ref_3 bilinear_interp_v2_3.tmp_0 0=2  1=0.125 2=0.125 
BinaryOp                 p2o.Add.58               2 1 p2o.Add.57 bilinear_interp_v2_3.tmp_0 p2o.Add.59
ReLU                     p2o.Relu.60              1 1 p2o.Add.59 relu_60.tmp_0
Split                    splitncnn_32             1 2 relu_60.tmp_0 relu_60.tmp_0_splitncnn_0 relu_60.tmp_0_splitncnn_1
Convolution              p2o.Conv.64              1 1 relu_42.tmp_0_splitncnn_0 relu_61.tmp_0 0=18 1=3 3=2 4=-233 5=1 6=2916 9=1
Convolution              p2o.Conv.65              1 1 relu_61.tmp_0 conv2d_393.tmp_0 0=72 1=3 3=2 4=-233 5=1 6=11664
BinaryOp                 p2o.Add.60               2 1 relu_58.tmp_0_splitncnn_0 conv2d_393.tmp_0 p2o.Add.61
Convolution              p2o.Conv.66              1 1 relu_50.tmp_0_splitncnn_0 conv2d_394.tmp_0 0=72 1=3 3=2 4=-233 5=1 6=23328
BinaryOp                 p2o.Add.62               2 1 p2o.Add.61 conv2d_394.tmp_0 p2o.Add.63
ReLU                     p2o.Relu.62              1 1 p2o.Add.63 relu_62.tmp_0
Split                    splitncnn_33             1 2 relu_62.tmp_0 relu_62.tmp_0_splitncnn_0 relu_62.tmp_0_splitncnn_1
Convolution              p2o.Conv.67              1 1 relu_59.tmp_0_splitncnn_1 relu_63.tmp_0 0=18 1=3 4=-233 5=1 6=2916 9=1
Convolution              p2o.Conv.68              1 1 relu_63.tmp_0 conv2d_396.tmp_0 0=18 1=3 4=-233 5=1 6=2916
BinaryOp                 p2o.Add.64               2 1 conv2d_396.tmp_0 relu_59.tmp_0_splitncnn_0 p2o.Add.65
ReLU                     p2o.Relu.64              1 1 p2o.Add.65 relu_64.tmp_0
Split                    splitncnn_34             1 2 relu_64.tmp_0 relu_64.tmp_0_splitncnn_0 relu_64.tmp_0_splitncnn_1
Convolution              p2o.Conv.69              1 1 relu_64.tmp_0_splitncnn_1 relu_65.tmp_0 0=18 1=3 4=-233 5=1 6=2916 9=1
Convolution              p2o.Conv.70              1 1 relu_65.tmp_0 conv2d_398.tmp_0 0=18 1=3 4=-233 5=1 6=2916
BinaryOp                 p2o.Add.66               2 1 conv2d_398.tmp_0 relu_64.tmp_0_splitncnn_0 p2o.Add.67
ReLU                     p2o.Relu.66              1 1 p2o.Add.67 relu_66.tmp_0
Split                    splitncnn_35             1 2 relu_66.tmp_0 relu_66.tmp_0_splitncnn_0 relu_66.tmp_0_splitncnn_1
Convolution              p2o.Conv.71              1 1 relu_66.tmp_0_splitncnn_1 relu_67.tmp_0 0=18 1=3 4=-233 5=1 6=2916 9=1
Convolution              p2o.Conv.72              1 1 relu_67.tmp_0 conv2d_400.tmp_0 0=18 1=3 4=-233 5=1 6=2916
BinaryOp                 p2o.Add.68               2 1 conv2d_400.tmp_0 relu_66.tmp_0_splitncnn_0 p2o.Add.69
ReLU                     p2o.Relu.68              1 1 p2o.Add.69 relu_68.tmp_0
Split                    splitncnn_36             1 2 relu_68.tmp_0 relu_68.tmp_0_splitncnn_0 relu_68.tmp_0_splitncnn_1
Convolution              p2o.Conv.73              1 1 relu_68.tmp_0_splitncnn_1 relu_69.tmp_0 0=18 1=3 4=-233 5=1 6=2916 9=1
Convolution              p2o.Conv.74              1 1 relu_69.tmp_0 conv2d_402.tmp_0 0=18 1=3 4=-233 5=1 6=2916
BinaryOp                 p2o.Add.70               2 1 conv2d_402.tmp_0 relu_68.tmp_0_splitncnn_0 p2o.Add.71
ReLU                     p2o.Relu.70              1 1 p2o.Add.71 relu_70.tmp_0
Split                    splitncnn_37             1 3 relu_70.tmp_0 relu_70.tmp_0_splitncnn_0 relu_70.tmp_0_splitncnn_1 relu_70.tmp_0_splitncnn_2
Convolution              p2o.Conv.75              1 1 relu_60.tmp_0_splitncnn_1 relu_71.tmp_0 0=36 1=3 4=-233 5=1 6=11664 9=1
Convolution              p2o.Conv.76              1 1 relu_71.tmp_0 conv2d_404.tmp_0 0=36 1=3 4=-233 5=1 6=11664
BinaryOp                 p2o.Add.72               2 1 conv2d_404.tmp_0 relu_60.tmp_0_splitncnn_0 p2o.Add.73
ReLU                     p2o.Relu.72              1 1 p2o.Add.73 relu_72.tmp_0
Split                    splitncnn_38             1 2 relu_72.tmp_0 relu_72.tmp_0_splitncnn_0 relu_72.tmp_0_splitncnn_1
Convolution              p2o.Conv.77              1 1 relu_72.tmp_0_splitncnn_1 relu_73.tmp_0 0=36 1=3 4=-233 5=1 6=11664 9=1
Convolution              p2o.Conv.78              1 1 relu_73.tmp_0 conv2d_406.tmp_0 0=36 1=3 4=-233 5=1 6=11664
BinaryOp                 p2o.Add.74               2 1 conv2d_406.tmp_0 relu_72.tmp_0_splitncnn_0 p2o.Add.75
ReLU                     p2o.Relu.74              1 1 p2o.Add.75 relu_74.tmp_0
Split                    splitncnn_39             1 2 relu_74.tmp_0 relu_74.tmp_0_splitncnn_0 relu_74.tmp_0_splitncnn_1
Convolution              p2o.Conv.79              1 1 relu_74.tmp_0_splitncnn_1 relu_75.tmp_0 0=36 1=3 4=-233 5=1 6=11664 9=1
Convolution              p2o.Conv.80              1 1 relu_75.tmp_0 conv2d_408.tmp_0 0=36 1=3 4=-233 5=1 6=11664
BinaryOp                 p2o.Add.76               2 1 conv2d_408.tmp_0 relu_74.tmp_0_splitncnn_0 p2o.Add.77
ReLU                     p2o.Relu.76              1 1 p2o.Add.77 relu_76.tmp_0
Split                    splitncnn_40             1 2 relu_76.tmp_0 relu_76.tmp_0_splitncnn_0 relu_76.tmp_0_splitncnn_1
Convolution              p2o.Conv.81              1 1 relu_76.tmp_0_splitncnn_1 relu_77.tmp_0 0=36 1=3 4=-233 5=1 6=11664 9=1
Convolution              p2o.Conv.82              1 1 relu_77.tmp_0 conv2d_410.tmp_0 0=36 1=3 4=-233 5=1 6=11664
BinaryOp                 p2o.Add.78               2 1 conv2d_410.tmp_0 relu_76.tmp_0_splitncnn_0 p2o.Add.79
ReLU                     p2o.Relu.78              1 1 p2o.Add.79 relu_78.tmp_0
Split                    splitncnn_41             1 3 relu_78.tmp_0 relu_78.tmp_0_splitncnn_0 relu_78.tmp_0_splitncnn_1 relu_78.tmp_0_splitncnn_2
Convolution              p2o.Conv.83              1 1 relu_62.tmp_0_splitncnn_1 relu_79.tmp_0 0=72 1=3 4=-233 5=1 6=46656 9=1
Convolution              p2o.Conv.84              1 1 relu_79.tmp_0 conv2d_412.tmp_0 0=72 1=3 4=-233 5=1 6=46656
BinaryOp                 p2o.Add.80               2 1 conv2d_412.tmp_0 relu_62.tmp_0_splitncnn_0 p2o.Add.81
ReLU                     p2o.Relu.80              1 1 p2o.Add.81 relu_80.tmp_0
Split                    splitncnn_42             1 2 relu_80.tmp_0 relu_80.tmp_0_splitncnn_0 relu_80.tmp_0_splitncnn_1
Convolution              p2o.Conv.85              1 1 relu_80.tmp_0_splitncnn_1 relu_81.tmp_0 0=72 1=3 4=-233 5=1 6=46656 9=1
Convolution              p2o.Conv.86              1 1 relu_81.tmp_0 conv2d_414.tmp_0 0=72 1=3 4=-233 5=1 6=46656
BinaryOp                 p2o.Add.82               2 1 conv2d_414.tmp_0 relu_80.tmp_0_splitncnn_0 p2o.Add.83
ReLU                     p2o.Relu.82              1 1 p2o.Add.83 relu_82.tmp_0
Split                    splitncnn_43             1 2 relu_82.tmp_0 relu_82.tmp_0_splitncnn_0 relu_82.tmp_0_splitncnn_1
Convolution              p2o.Conv.87              1 1 relu_82.tmp_0_splitncnn_1 relu_83.tmp_0 0=72 1=3 4=-233 5=1 6=46656 9=1
Convolution              p2o.Conv.88              1 1 relu_83.tmp_0 conv2d_416.tmp_0 0=72 1=3 4=-233 5=1 6=46656
BinaryOp                 p2o.Add.84               2 1 conv2d_416.tmp_0 relu_82.tmp_0_splitncnn_0 p2o.Add.85
ReLU                     p2o.Relu.84              1 1 p2o.Add.85 relu_84.tmp_0
Split                    splitncnn_44             1 2 relu_84.tmp_0 relu_84.tmp_0_splitncnn_0 relu_84.tmp_0_splitncnn_1
Convolution              p2o.Conv.89              1 1 relu_84.tmp_0_splitncnn_1 relu_85.tmp_0 0=72 1=3 4=-233 5=1 6=46656 9=1
Convolution              p2o.Conv.90              1 1 relu_85.tmp_0 conv2d_418.tmp_0 0=72 1=3 4=-233 5=1 6=46656
BinaryOp                 p2o.Add.86               2 1 conv2d_418.tmp_0 relu_84.tmp_0_splitncnn_0 p2o.Add.87
ReLU                     p2o.Relu.86              1 1 p2o.Add.87 relu_86.tmp_0
Split                    splitncnn_45             1 3 relu_86.tmp_0 relu_86.tmp_0_splitncnn_0 relu_86.tmp_0_splitncnn_1 relu_86.tmp_0_splitncnn_2
Convolution              p2o.Conv.91              1 1 relu_78.tmp_0_splitncnn_2 conv2d_419.tmp_0 0=18 1=1 4=-233 5=1 6=648
Interp                   p2o.Resize.4              2 1 conv2d_419.tmp_0 resize_ref_4 bilinear_interp_v2_4.tmp_0 0=2  1=0.25 2=0.25 
BinaryOp                 p2o.Add.88               2 1 relu_70.tmp_0_splitncnn_2 bilinear_interp_v2_4.tmp_0 p2o.Add.89
Convolution              p2o.Conv.92              1 1 relu_86.tmp_0_splitncnn_2 conv2d_420.tmp_0 0=18 1=1 4=-233 5=1 6=1296
Interp                   p2o.Resize.5              2 1 conv2d_420.tmp_0 resize_ref_5 bilinear_interp_v2_5.tmp_0 0=2  1=0.25 2=0.25 
BinaryOp                 p2o.Add.90               2 1 p2o.Add.89 bilinear_interp_v2_5.tmp_0 p2o.Add.91
ReLU                     p2o.Relu.87              1 1 p2o.Add.91 relu_87.tmp_0
Split                    splitncnn_46             1 2 relu_87.tmp_0 relu_87.tmp_0_splitncnn_0 relu_87.tmp_0_splitncnn_1
Convolution              p2o.Conv.93              1 1 relu_70.tmp_0_splitncnn_1 conv2d_421.tmp_0 0=36 1=3 3=2 4=-233 5=1 6=5832
BinaryOp                 p2o.Add.92               2 1 relu_78.tmp_0_splitncnn_1 conv2d_421.tmp_0 p2o.Add.93
Convolution              p2o.Conv.94              1 1 relu_86.tmp_0_splitncnn_1 conv2d_422.tmp_0 0=36 1=1 4=-233 5=1 6=2592
Interp                   p2o.Resize.6              2 1 conv2d_422.tmp_0 resize_ref_6 bilinear_interp_v2_6.tmp_0 0=2  1=0.125 2=0.125 
BinaryOp                 p2o.Add.94               2 1 p2o.Add.93 bilinear_interp_v2_6.tmp_0 p2o.Add.95
ReLU                     p2o.Relu.88              1 1 p2o.Add.95 relu_88.tmp_0
Split                    splitncnn_47             1 2 relu_88.tmp_0 relu_88.tmp_0_splitncnn_0 relu_88.tmp_0_splitncnn_1
Convolution              p2o.Conv.95              1 1 relu_70.tmp_0_splitncnn_0 relu_89.tmp_0 0=18 1=3 3=2 4=-233 5=1 6=2916 9=1
Convolution              p2o.Conv.96              1 1 relu_89.tmp_0 conv2d_424.tmp_0 0=72 1=3 3=2 4=-233 5=1 6=11664
BinaryOp                 p2o.Add.96               2 1 relu_86.tmp_0_splitncnn_0 conv2d_424.tmp_0 p2o.Add.97
Convolution              p2o.Conv.97              1 1 relu_78.tmp_0_splitncnn_0 conv2d_425.tmp_0 0=72 1=3 3=2 4=-233 5=1 6=23328
BinaryOp                 p2o.Add.98               2 1 p2o.Add.97 conv2d_425.tmp_0 p2o.Add.99
ReLU                     p2o.Relu.90              1 1 p2o.Add.99 relu_90.tmp_0
Split                    splitncnn_48             1 2 relu_90.tmp_0 relu_90.tmp_0_splitncnn_0 relu_90.tmp_0_splitncnn_1
Convolution              p2o.Conv.98              1 1 relu_87.tmp_0_splitncnn_1 relu_91.tmp_0 0=18 1=3 4=-233 5=1 6=2916 9=1
Convolution              p2o.Conv.99              1 1 relu_91.tmp_0 conv2d_427.tmp_0 0=18 1=3 4=-233 5=1 6=2916
BinaryOp                 p2o.Add.100              2 1 conv2d_427.tmp_0 relu_87.tmp_0_splitncnn_0 p2o.Add.101
ReLU                     p2o.Relu.92              1 1 p2o.Add.101 relu_92.tmp_0
Split                    splitncnn_49             1 2 relu_92.tmp_0 relu_92.tmp_0_splitncnn_0 relu_92.tmp_0_splitncnn_1
Convolution              p2o.Conv.100             1 1 relu_92.tmp_0_splitncnn_1 relu_93.tmp_0 0=18 1=3 4=-233 5=1 6=2916 9=1
Convolution              p2o.Conv.101             1 1 relu_93.tmp_0 conv2d_429.tmp_0 0=18 1=3 4=-233 5=1 6=2916
BinaryOp                 p2o.Add.102              2 1 conv2d_429.tmp_0 relu_92.tmp_0_splitncnn_0 p2o.Add.103
ReLU                     p2o.Relu.94              1 1 p2o.Add.103 relu_94.tmp_0
Split                    splitncnn_50             1 2 relu_94.tmp_0 relu_94.tmp_0_splitncnn_0 relu_94.tmp_0_splitncnn_1
Convolution              p2o.Conv.102             1 1 relu_94.tmp_0_splitncnn_1 relu_95.tmp_0 0=18 1=3 4=-233 5=1 6=2916 9=1
Convolution              p2o.Conv.103             1 1 relu_95.tmp_0 conv2d_431.tmp_0 0=18 1=3 4=-233 5=1 6=2916
BinaryOp                 p2o.Add.104              2 1 conv2d_431.tmp_0 relu_94.tmp_0_splitncnn_0 p2o.Add.105
ReLU                     p2o.Relu.96              1 1 p2o.Add.105 relu_96.tmp_0
Split                    splitncnn_51             1 2 relu_96.tmp_0 relu_96.tmp_0_splitncnn_0 relu_96.tmp_0_splitncnn_1
Convolution              p2o.Conv.104             1 1 relu_96.tmp_0_splitncnn_1 relu_97.tmp_0 0=18 1=3 4=-233 5=1 6=2916 9=1
Convolution              p2o.Conv.105             1 1 relu_97.tmp_0 conv2d_433.tmp_0 0=18 1=3 4=-233 5=1 6=2916
BinaryOp                 p2o.Add.106              2 1 conv2d_433.tmp_0 relu_96.tmp_0_splitncnn_0 p2o.Add.107
ReLU                     p2o.Relu.98              1 1 p2o.Add.107 relu_98.tmp_0
Split                    splitncnn_52             1 3 relu_98.tmp_0 relu_98.tmp_0_splitncnn_0 relu_98.tmp_0_splitncnn_1 relu_98.tmp_0_splitncnn_2
Convolution              p2o.Conv.106             1 1 relu_88.tmp_0_splitncnn_1 relu_99.tmp_0 0=36 1=3 4=-233 5=1 6=11664 9=1
Convolution              p2o.Conv.107             1 1 relu_99.tmp_0 conv2d_435.tmp_0 0=36 1=3 4=-233 5=1 6=11664
BinaryOp                 p2o.Add.108              2 1 conv2d_435.tmp_0 relu_88.tmp_0_splitncnn_0 p2o.Add.109
ReLU                     p2o.Relu.100             1 1 p2o.Add.109 relu_100.tmp_0
Split                    splitncnn_53             1 2 relu_100.tmp_0 relu_100.tmp_0_splitncnn_0 relu_100.tmp_0_splitncnn_1
Convolution              p2o.Conv.108             1 1 relu_100.tmp_0_splitncnn_1 relu_101.tmp_0 0=36 1=3 4=-233 5=1 6=11664 9=1
Convolution              p2o.Conv.109             1 1 relu_101.tmp_0 conv2d_437.tmp_0 0=36 1=3 4=-233 5=1 6=11664
BinaryOp                 p2o.Add.110              2 1 conv2d_437.tmp_0 relu_100.tmp_0_splitncnn_0 p2o.Add.111
ReLU                     p2o.Relu.102             1 1 p2o.Add.111 relu_102.tmp_0
Split                    splitncnn_54             1 2 relu_102.tmp_0 relu_102.tmp_0_splitncnn_0 relu_102.tmp_0_splitncnn_1
Convolution              p2o.Conv.110             1 1 relu_102.tmp_0_splitncnn_1 relu_103.tmp_0 0=36 1=3 4=-233 5=1 6=11664 9=1
Convolution              p2o.Conv.111             1 1 relu_103.tmp_0 conv2d_439.tmp_0 0=36 1=3 4=-233 5=1 6=11664
BinaryOp                 p2o.Add.112              2 1 conv2d_439.tmp_0 relu_102.tmp_0_splitncnn_0 p2o.Add.113
ReLU                     p2o.Relu.104             1 1 p2o.Add.113 relu_104.tmp_0
Split                    splitncnn_55             1 2 relu_104.tmp_0 relu_104.tmp_0_splitncnn_0 relu_104.tmp_0_splitncnn_1
Convolution              p2o.Conv.112             1 1 relu_104.tmp_0_splitncnn_1 relu_105.tmp_0 0=36 1=3 4=-233 5=1 6=11664 9=1
Convolution              p2o.Conv.113             1 1 relu_105.tmp_0 conv2d_441.tmp_0 0=36 1=3 4=-233 5=1 6=11664
BinaryOp                 p2o.Add.114              2 1 conv2d_441.tmp_0 relu_104.tmp_0_splitncnn_0 p2o.Add.115
ReLU                     p2o.Relu.106             1 1 p2o.Add.115 relu_106.tmp_0
Split                    splitncnn_56             1 3 relu_106.tmp_0 relu_106.tmp_0_splitncnn_0 relu_106.tmp_0_splitncnn_1 relu_106.tmp_0_splitncnn_2
Convolution              p2o.Conv.114             1 1 relu_90.tmp_0_splitncnn_1 relu_107.tmp_0 0=72 1=3 4=-233 5=1 6=46656 9=1
Convolution              p2o.Conv.115             1 1 relu_107.tmp_0 conv2d_443.tmp_0 0=72 1=3 4=-233 5=1 6=46656
BinaryOp                 p2o.Add.116              2 1 conv2d_443.tmp_0 relu_90.tmp_0_splitncnn_0 p2o.Add.117
ReLU                     p2o.Relu.108             1 1 p2o.Add.117 relu_108.tmp_0
Split                    splitncnn_57             1 2 relu_108.tmp_0 relu_108.tmp_0_splitncnn_0 relu_108.tmp_0_splitncnn_1
Convolution              p2o.Conv.116             1 1 relu_108.tmp_0_splitncnn_1 relu_109.tmp_0 0=72 1=3 4=-233 5=1 6=46656 9=1
Convolution              p2o.Conv.117             1 1 relu_109.tmp_0 conv2d_445.tmp_0 0=72 1=3 4=-233 5=1 6=46656
BinaryOp                 p2o.Add.118              2 1 conv2d_445.tmp_0 relu_108.tmp_0_splitncnn_0 p2o.Add.119
ReLU                     p2o.Relu.110             1 1 p2o.Add.119 relu_110.tmp_0
Split                    splitncnn_58             1 2 relu_110.tmp_0 relu_110.tmp_0_splitncnn_0 relu_110.tmp_0_splitncnn_1
Convolution              p2o.Conv.118             1 1 relu_110.tmp_0_splitncnn_1 relu_111.tmp_0 0=72 1=3 4=-233 5=1 6=46656 9=1
Convolution              p2o.Conv.119             1 1 relu_111.tmp_0 conv2d_447.tmp_0 0=72 1=3 4=-233 5=1 6=46656
BinaryOp                 p2o.Add.120              2 1 conv2d_447.tmp_0 relu_110.tmp_0_splitncnn_0 p2o.Add.121
ReLU                     p2o.Relu.112             1 1 p2o.Add.121 relu_112.tmp_0
Split                    splitncnn_59             1 2 relu_112.tmp_0 relu_112.tmp_0_splitncnn_0 relu_112.tmp_0_splitncnn_1
Convolution              p2o.Conv.120             1 1 relu_112.tmp_0_splitncnn_1 relu_113.tmp_0 0=72 1=3 4=-233 5=1 6=46656 9=1
Convolution              p2o.Conv.121             1 1 relu_113.tmp_0 conv2d_449.tmp_0 0=72 1=3 4=-233 5=1 6=46656
BinaryOp                 p2o.Add.122              2 1 conv2d_449.tmp_0 relu_112.tmp_0_splitncnn_0 p2o.Add.123
ReLU                     p2o.Relu.114             1 1 p2o.Add.123 relu_114.tmp_0
Split                    splitncnn_60             1 3 relu_114.tmp_0 relu_114.tmp_0_splitncnn_0 relu_114.tmp_0_splitncnn_1 relu_114.tmp_0_splitncnn_2
Convolution              p2o.Conv.122             1 1 relu_106.tmp_0_splitncnn_2 conv2d_450.tmp_0 0=18 1=1 4=-233 5=1 6=648
Interp                   p2o.Resize.7              2 1 conv2d_450.tmp_0 resize_ref_7 bilinear_interp_v2_7.tmp_0 0=2  1=0.25 2=0.25 
BinaryOp                 p2o.Add.124              2 1 relu_98.tmp_0_splitncnn_2 bilinear_interp_v2_7.tmp_0 p2o.Add.125
Convolution              p2o.Conv.123             1 1 relu_114.tmp_0_splitncnn_2 conv2d_451.tmp_0 0=18 1=1 4=-233 5=1 6=1296
Interp                   p2o.Resize.8              2 1 conv2d_451.tmp_0 resize_ref_8 bilinear_interp_v2_8.tmp_0 0=2  1=0.25 2=0.25 
BinaryOp                 p2o.Add.126              2 1 p2o.Add.125 bilinear_interp_v2_8.tmp_0 p2o.Add.127
ReLU                     p2o.Relu.115             1 1 p2o.Add.127 relu_115.tmp_0
Split                    splitncnn_61             1 2 relu_115.tmp_0 relu_115.tmp_0_splitncnn_0 relu_115.tmp_0_splitncnn_1
Convolution              p2o.Conv.124             1 1 relu_98.tmp_0_splitncnn_1 conv2d_452.tmp_0 0=36 1=3 3=2 4=-233 5=1 6=5832
BinaryOp                 p2o.Add.128              2 1 relu_106.tmp_0_splitncnn_1 conv2d_452.tmp_0 p2o.Add.129
Convolution              p2o.Conv.125             1 1 relu_114.tmp_0_splitncnn_1 conv2d_453.tmp_0 0=36 1=1 4=-233 5=1 6=2592
Interp                   p2o.Resize.9              2 1 conv2d_453.tmp_0 resize_ref_9 bilinear_interp_v2_9.tmp_0 0=2  1=0.125 2=0.125 
BinaryOp                 p2o.Add.130              2 1 p2o.Add.129 bilinear_interp_v2_9.tmp_0 p2o.Add.131
ReLU                     p2o.Relu.116             1 1 p2o.Add.131 relu_116.tmp_0
Split                    splitncnn_62             1 2 relu_116.tmp_0 relu_116.tmp_0_splitncnn_0 relu_116.tmp_0_splitncnn_1
Convolution              p2o.Conv.126             1 1 relu_98.tmp_0_splitncnn_0 relu_117.tmp_0 0=18 1=3 3=2 4=-233 5=1 6=2916 9=1
Convolution              p2o.Conv.127             1 1 relu_117.tmp_0 conv2d_455.tmp_0 0=72 1=3 3=2 4=-233 5=1 6=11664
BinaryOp                 p2o.Add.132              2 1 relu_114.tmp_0_splitncnn_0 conv2d_455.tmp_0 p2o.Add.133
Convolution              p2o.Conv.128             1 1 relu_106.tmp_0_splitncnn_0 conv2d_456.tmp_0 0=72 1=3 3=2 4=-233 5=1 6=23328
BinaryOp                 p2o.Add.134              2 1 p2o.Add.133 conv2d_456.tmp_0 p2o.Add.135
ReLU                     p2o.Relu.118             1 1 p2o.Add.135 relu_118.tmp_0
Split                    splitncnn_63             1 2 relu_118.tmp_0 relu_118.tmp_0_splitncnn_0 relu_118.tmp_0_splitncnn_1
Convolution              p2o.Conv.129             1 1 relu_115.tmp_0_splitncnn_1 relu_119.tmp_0 0=18 1=3 4=-233 5=1 6=2916 9=1
Convolution              p2o.Conv.130             1 1 relu_119.tmp_0 conv2d_458.tmp_0 0=18 1=3 4=-233 5=1 6=2916
BinaryOp                 p2o.Add.136              2 1 conv2d_458.tmp_0 relu_115.tmp_0_splitncnn_0 p2o.Add.137
ReLU                     p2o.Relu.120             1 1 p2o.Add.137 relu_120.tmp_0
Split                    splitncnn_64             1 2 relu_120.tmp_0 relu_120.tmp_0_splitncnn_0 relu_120.tmp_0_splitncnn_1
Convolution              p2o.Conv.131             1 1 relu_120.tmp_0_splitncnn_1 relu_121.tmp_0 0=18 1=3 4=-233 5=1 6=2916 9=1
Convolution              p2o.Conv.132             1 1 relu_121.tmp_0 conv2d_460.tmp_0 0=18 1=3 4=-233 5=1 6=2916
BinaryOp                 p2o.Add.138              2 1 conv2d_460.tmp_0 relu_120.tmp_0_splitncnn_0 p2o.Add.139
ReLU                     p2o.Relu.122             1 1 p2o.Add.139 relu_122.tmp_0
Split                    splitncnn_65             1 2 relu_122.tmp_0 relu_122.tmp_0_splitncnn_0 relu_122.tmp_0_splitncnn_1
Convolution              p2o.Conv.133             1 1 relu_122.tmp_0_splitncnn_1 relu_123.tmp_0 0=18 1=3 4=-233 5=1 6=2916 9=1
Convolution              p2o.Conv.134             1 1 relu_123.tmp_0 conv2d_462.tmp_0 0=18 1=3 4=-233 5=1 6=2916
BinaryOp                 p2o.Add.140              2 1 conv2d_462.tmp_0 relu_122.tmp_0_splitncnn_0 p2o.Add.141
ReLU                     p2o.Relu.124             1 1 p2o.Add.141 relu_124.tmp_0
Split                    splitncnn_66             1 2 relu_124.tmp_0 relu_124.tmp_0_splitncnn_0 relu_124.tmp_0_splitncnn_1
Convolution              p2o.Conv.135             1 1 relu_124.tmp_0_splitncnn_1 relu_125.tmp_0 0=18 1=3 4=-233 5=1 6=2916 9=1
Convolution              p2o.Conv.136             1 1 relu_125.tmp_0 conv2d_464.tmp_0 0=18 1=3 4=-233 5=1 6=2916
BinaryOp                 p2o.Add.142              2 1 conv2d_464.tmp_0 relu_124.tmp_0_splitncnn_0 p2o.Add.143
ReLU                     p2o.Relu.126             1 1 p2o.Add.143 relu_126.tmp_0
Split                    splitncnn_67             1 3 relu_126.tmp_0 relu_126.tmp_0_splitncnn_0 relu_126.tmp_0_splitncnn_1 relu_126.tmp_0_splitncnn_2
Convolution              p2o.Conv.137             1 1 relu_116.tmp_0_splitncnn_1 relu_127.tmp_0 0=36 1=3 4=-233 5=1 6=11664 9=1
Convolution              p2o.Conv.138             1 1 relu_127.tmp_0 conv2d_466.tmp_0 0=36 1=3 4=-233 5=1 6=11664
BinaryOp                 p2o.Add.144              2 1 conv2d_466.tmp_0 relu_116.tmp_0_splitncnn_0 p2o.Add.145
ReLU                     p2o.Relu.128             1 1 p2o.Add.145 relu_128.tmp_0
Split                    splitncnn_68             1 2 relu_128.tmp_0 relu_128.tmp_0_splitncnn_0 relu_128.tmp_0_splitncnn_1
Convolution              p2o.Conv.139             1 1 relu_128.tmp_0_splitncnn_1 relu_129.tmp_0 0=36 1=3 4=-233 5=1 6=11664 9=1
Convolution              p2o.Conv.140             1 1 relu_129.tmp_0 conv2d_468.tmp_0 0=36 1=3 4=-233 5=1 6=11664
BinaryOp                 p2o.Add.146              2 1 conv2d_468.tmp_0 relu_128.tmp_0_splitncnn_0 p2o.Add.147
ReLU                     p2o.Relu.130             1 1 p2o.Add.147 relu_130.tmp_0
Split                    splitncnn_69             1 2 relu_130.tmp_0 relu_130.tmp_0_splitncnn_0 relu_130.tmp_0_splitncnn_1
Convolution              p2o.Conv.141             1 1 relu_130.tmp_0_splitncnn_1 relu_131.tmp_0 0=36 1=3 4=-233 5=1 6=11664 9=1
Convolution              p2o.Conv.142             1 1 relu_131.tmp_0 conv2d_470.tmp_0 0=36 1=3 4=-233 5=1 6=11664
BinaryOp                 p2o.Add.148              2 1 conv2d_470.tmp_0 relu_130.tmp_0_splitncnn_0 p2o.Add.149
ReLU                     p2o.Relu.132             1 1 p2o.Add.149 relu_132.tmp_0
Split                    splitncnn_70             1 2 relu_132.tmp_0 relu_132.tmp_0_splitncnn_0 relu_132.tmp_0_splitncnn_1
Convolution              p2o.Conv.143             1 1 relu_132.tmp_0_splitncnn_1 relu_133.tmp_0 0=36 1=3 4=-233 5=1 6=11664 9=1
Convolution              p2o.Conv.144             1 1 relu_133.tmp_0 conv2d_472.tmp_0 0=36 1=3 4=-233 5=1 6=11664
BinaryOp                 p2o.Add.150              2 1 conv2d_472.tmp_0 relu_132.tmp_0_splitncnn_0 p2o.Add.151
ReLU                     p2o.Relu.134             1 1 p2o.Add.151 relu_134.tmp_0
Split                    splitncnn_71             1 3 relu_134.tmp_0 relu_134.tmp_0_splitncnn_0 relu_134.tmp_0_splitncnn_1 relu_134.tmp_0_splitncnn_2
Convolution              p2o.Conv.145             1 1 relu_118.tmp_0_splitncnn_1 relu_135.tmp_0 0=72 1=3 4=-233 5=1 6=46656 9=1
Convolution              p2o.Conv.146             1 1 relu_135.tmp_0 conv2d_474.tmp_0 0=72 1=3 4=-233 5=1 6=46656
BinaryOp                 p2o.Add.152              2 1 conv2d_474.tmp_0 relu_118.tmp_0_splitncnn_0 p2o.Add.153
ReLU                     p2o.Relu.136             1 1 p2o.Add.153 relu_136.tmp_0
Split                    splitncnn_72             1 2 relu_136.tmp_0 relu_136.tmp_0_splitncnn_0 relu_136.tmp_0_splitncnn_1
Convolution              p2o.Conv.147             1 1 relu_136.tmp_0_splitncnn_1 relu_137.tmp_0 0=72 1=3 4=-233 5=1 6=46656 9=1
Convolution              p2o.Conv.148             1 1 relu_137.tmp_0 conv2d_476.tmp_0 0=72 1=3 4=-233 5=1 6=46656
BinaryOp                 p2o.Add.154              2 1 conv2d_476.tmp_0 relu_136.tmp_0_splitncnn_0 p2o.Add.155
ReLU                     p2o.Relu.138             1 1 p2o.Add.155 relu_138.tmp_0
Split                    splitncnn_73             1 2 relu_138.tmp_0 relu_138.tmp_0_splitncnn_0 relu_138.tmp_0_splitncnn_1
Convolution              p2o.Conv.149             1 1 relu_138.tmp_0_splitncnn_1 relu_139.tmp_0 0=72 1=3 4=-233 5=1 6=46656 9=1
Convolution              p2o.Conv.150             1 1 relu_139.tmp_0 conv2d_478.tmp_0 0=72 1=3 4=-233 5=1 6=46656
BinaryOp                 p2o.Add.156              2 1 conv2d_478.tmp_0 relu_138.tmp_0_splitncnn_0 p2o.Add.157
ReLU                     p2o.Relu.140             1 1 p2o.Add.157 relu_140.tmp_0
Split                    splitncnn_74             1 2 relu_140.tmp_0 relu_140.tmp_0_splitncnn_0 relu_140.tmp_0_splitncnn_1
Convolution              p2o.Conv.151             1 1 relu_140.tmp_0_splitncnn_1 relu_141.tmp_0 0=72 1=3 4=-233 5=1 6=46656 9=1
Convolution              p2o.Conv.152             1 1 relu_141.tmp_0 conv2d_480.tmp_0 0=72 1=3 4=-233 5=1 6=46656
BinaryOp                 p2o.Add.158              2 1 conv2d_480.tmp_0 relu_140.tmp_0_splitncnn_0 p2o.Add.159
ReLU                     p2o.Relu.142             1 1 p2o.Add.159 relu_142.tmp_0
Split                    splitncnn_75             1 3 relu_142.tmp_0 relu_142.tmp_0_splitncnn_0 relu_142.tmp_0_splitncnn_1 relu_142.tmp_0_splitncnn_2
Convolution              p2o.Conv.153             1 1 relu_134.tmp_0_splitncnn_2 conv2d_481.tmp_0 0=18 1=1 4=-233 5=1 6=648
Interp                   p2o.Resize.10             2 1 conv2d_481.tmp_0 resize_ref_10 bilinear_interp_v2_10.tmp_0 0=2  1=0.25 2=0.25 
BinaryOp                 p2o.Add.160              2 1 relu_126.tmp_0_splitncnn_2 bilinear_interp_v2_10.tmp_0 p2o.Add.161
Convolution              p2o.Conv.154             1 1 relu_142.tmp_0_splitncnn_2 conv2d_482.tmp_0 0=18 1=1 4=-233 5=1 6=1296
Interp                   p2o.Resize.11             2 1 conv2d_482.tmp_0 resize_ref_11 bilinear_interp_v2_11.tmp_0 0=2  1=0.25 2=0.25 
BinaryOp                 p2o.Add.162              2 1 p2o.Add.161 bilinear_interp_v2_11.tmp_0 p2o.Add.163
ReLU                     p2o.Relu.143             1 1 p2o.Add.163 relu_143.tmp_0
Split                    splitncnn_76             1 2 relu_143.tmp_0 relu_143.tmp_0_splitncnn_0 relu_143.tmp_0_splitncnn_1
Convolution              p2o.Conv.155             1 1 relu_126.tmp_0_splitncnn_1 conv2d_483.tmp_0 0=36 1=3 3=2 4=-233 5=1 6=5832
BinaryOp                 p2o.Add.164              2 1 relu_134.tmp_0_splitncnn_1 conv2d_483.tmp_0 p2o.Add.165
Convolution              p2o.Conv.156             1 1 relu_142.tmp_0_splitncnn_1 conv2d_484.tmp_0 0=36 1=1 4=-233 5=1 6=2592
Interp                   p2o.Resize.12             2 1 conv2d_484.tmp_0 resize_ref_12 bilinear_interp_v2_12.tmp_0 0=2  1=0.125 2=0.125 
BinaryOp                 p2o.Add.166              2 1 p2o.Add.165 bilinear_interp_v2_12.tmp_0 p2o.Add.167
ReLU                     p2o.Relu.144             1 1 p2o.Add.167 relu_144.tmp_0
Split                    splitncnn_77             1 2 relu_144.tmp_0 relu_144.tmp_0_splitncnn_0 relu_144.tmp_0_splitncnn_1
Convolution              p2o.Conv.157             1 1 relu_126.tmp_0_splitncnn_0 relu_145.tmp_0 0=18 1=3 3=2 4=-233 5=1 6=2916 9=1
Convolution              p2o.Conv.158             1 1 relu_145.tmp_0 conv2d_486.tmp_0 0=72 1=3 3=2 4=-233 5=1 6=11664
BinaryOp                 p2o.Add.168              2 1 relu_142.tmp_0_splitncnn_0 conv2d_486.tmp_0 p2o.Add.169
Convolution              p2o.Conv.159             1 1 relu_134.tmp_0_splitncnn_0 conv2d_487.tmp_0 0=72 1=3 3=2 4=-233 5=1 6=23328
BinaryOp                 p2o.Add.170              2 1 p2o.Add.169 conv2d_487.tmp_0 p2o.Add.171
ReLU                     p2o.Relu.146             1 1 p2o.Add.171 relu_146.tmp_0
Split                    splitncnn_78             1 3 relu_146.tmp_0 relu_146.tmp_0_splitncnn_0 relu_146.tmp_0_splitncnn_1 relu_146.tmp_0_splitncnn_2
Convolution              p2o.Conv.160             1 1 relu_146.tmp_0_splitncnn_2 relu_147.tmp_0 0=144 1=3 3=2 4=-233 5=1 6=93312 9=1
Split                    splitncnn_79             1 2 relu_147.tmp_0 relu_147.tmp_0_splitncnn_0 relu_147.tmp_0_splitncnn_1
Convolution              p2o.Conv.161             1 1 relu_143.tmp_0_splitncnn_1 relu_148.tmp_0 0=18 1=3 4=-233 5=1 6=2916 9=1
Convolution              p2o.Conv.162             1 1 relu_148.tmp_0 conv2d_490.tmp_0 0=18 1=3 4=-233 5=1 6=2916
BinaryOp                 p2o.Add.172              2 1 conv2d_490.tmp_0 relu_143.tmp_0_splitncnn_0 p2o.Add.173
ReLU                     p2o.Relu.149             1 1 p2o.Add.173 relu_149.tmp_0
Split                    splitncnn_80             1 2 relu_149.tmp_0 relu_149.tmp_0_splitncnn_0 relu_149.tmp_0_splitncnn_1
Convolution              p2o.Conv.163             1 1 relu_149.tmp_0_splitncnn_1 relu_150.tmp_0 0=18 1=3 4=-233 5=1 6=2916 9=1
Convolution              p2o.Conv.164             1 1 relu_150.tmp_0 conv2d_492.tmp_0 0=18 1=3 4=-233 5=1 6=2916
BinaryOp                 p2o.Add.174              2 1 conv2d_492.tmp_0 relu_149.tmp_0_splitncnn_0 p2o.Add.175
ReLU                     p2o.Relu.151             1 1 p2o.Add.175 relu_151.tmp_0
Split                    splitncnn_81             1 2 relu_151.tmp_0 relu_151.tmp_0_splitncnn_0 relu_151.tmp_0_splitncnn_1
Convolution              p2o.Conv.165             1 1 relu_151.tmp_0_splitncnn_1 relu_152.tmp_0 0=18 1=3 4=-233 5=1 6=2916 9=1
Convolution              p2o.Conv.166             1 1 relu_152.tmp_0 conv2d_494.tmp_0 0=18 1=3 4=-233 5=1 6=2916
BinaryOp                 p2o.Add.176              2 1 conv2d_494.tmp_0 relu_151.tmp_0_splitncnn_0 p2o.Add.177
ReLU                     p2o.Relu.153             1 1 p2o.Add.177 relu_153.tmp_0
Split                    splitncnn_82             1 2 relu_153.tmp_0 relu_153.tmp_0_splitncnn_0 relu_153.tmp_0_splitncnn_1
Convolution              p2o.Conv.167             1 1 relu_153.tmp_0_splitncnn_1 relu_154.tmp_0 0=18 1=3 4=-233 5=1 6=2916 9=1
Convolution              p2o.Conv.168             1 1 relu_154.tmp_0 conv2d_496.tmp_0 0=18 1=3 4=-233 5=1 6=2916
BinaryOp                 p2o.Add.178              2 1 conv2d_496.tmp_0 relu_153.tmp_0_splitncnn_0 p2o.Add.179
ReLU                     p2o.Relu.155             1 1 p2o.Add.179 relu_155.tmp_0
Split                    splitncnn_83             1 4 relu_155.tmp_0 relu_155.tmp_0_splitncnn_0 relu_155.tmp_0_splitncnn_1 relu_155.tmp_0_splitncnn_2 relu_155.tmp_0_splitncnn_3
Convolution              p2o.Conv.169             1 1 relu_144.tmp_0_splitncnn_1 relu_156.tmp_0 0=36 1=3 4=-233 5=1 6=11664 9=1
Convolution              p2o.Conv.170             1 1 relu_156.tmp_0 conv2d_498.tmp_0 0=36 1=3 4=-233 5=1 6=11664
BinaryOp                 p2o.Add.180              2 1 conv2d_498.tmp_0 relu_144.tmp_0_splitncnn_0 p2o.Add.181
ReLU                     p2o.Relu.157             1 1 p2o.Add.181 relu_157.tmp_0
Split                    splitncnn_84             1 2 relu_157.tmp_0 relu_157.tmp_0_splitncnn_0 relu_157.tmp_0_splitncnn_1
Convolution              p2o.Conv.171             1 1 relu_157.tmp_0_splitncnn_1 relu_158.tmp_0 0=36 1=3 4=-233 5=1 6=11664 9=1
Convolution              p2o.Conv.172             1 1 relu_158.tmp_0 conv2d_500.tmp_0 0=36 1=3 4=-233 5=1 6=11664
BinaryOp                 p2o.Add.182              2 1 conv2d_500.tmp_0 relu_157.tmp_0_splitncnn_0 p2o.Add.183
ReLU                     p2o.Relu.159             1 1 p2o.Add.183 relu_159.tmp_0
Split                    splitncnn_85             1 2 relu_159.tmp_0 relu_159.tmp_0_splitncnn_0 relu_159.tmp_0_splitncnn_1
Convolution              p2o.Conv.173             1 1 relu_159.tmp_0_splitncnn_1 relu_160.tmp_0 0=36 1=3 4=-233 5=1 6=11664 9=1
Convolution              p2o.Conv.174             1 1 relu_160.tmp_0 conv2d_502.tmp_0 0=36 1=3 4=-233 5=1 6=11664
BinaryOp                 p2o.Add.184              2 1 conv2d_502.tmp_0 relu_159.tmp_0_splitncnn_0 p2o.Add.185
ReLU                     p2o.Relu.161             1 1 p2o.Add.185 relu_161.tmp_0
Split                    splitncnn_86             1 2 relu_161.tmp_0 relu_161.tmp_0_splitncnn_0 relu_161.tmp_0_splitncnn_1
Convolution              p2o.Conv.175             1 1 relu_161.tmp_0_splitncnn_1 relu_162.tmp_0 0=36 1=3 4=-233 5=1 6=11664 9=1
Convolution              p2o.Conv.176             1 1 relu_162.tmp_0 conv2d_504.tmp_0 0=36 1=3 4=-233 5=1 6=11664
BinaryOp                 p2o.Add.186              2 1 conv2d_504.tmp_0 relu_161.tmp_0_splitncnn_0 p2o.Add.187
ReLU                     p2o.Relu.163             1 1 p2o.Add.187 relu_163.tmp_0
Split                    splitncnn_87             1 4 relu_163.tmp_0 relu_163.tmp_0_splitncnn_0 relu_163.tmp_0_splitncnn_1 relu_163.tmp_0_splitncnn_2 relu_163.tmp_0_splitncnn_3
Convolution              p2o.Conv.177             1 1 relu_146.tmp_0_splitncnn_1 relu_164.tmp_0 0=72 1=3 4=-233 5=1 6=46656 9=1
Convolution              p2o.Conv.178             1 1 relu_164.tmp_0 conv2d_506.tmp_0 0=72 1=3 4=-233 5=1 6=46656
BinaryOp                 p2o.Add.188              2 1 conv2d_506.tmp_0 relu_146.tmp_0_splitncnn_0 p2o.Add.189
ReLU                     p2o.Relu.165             1 1 p2o.Add.189 relu_165.tmp_0
Split                    splitncnn_88             1 2 relu_165.tmp_0 relu_165.tmp_0_splitncnn_0 relu_165.tmp_0_splitncnn_1
Convolution              p2o.Conv.179             1 1 relu_165.tmp_0_splitncnn_1 relu_166.tmp_0 0=72 1=3 4=-233 5=1 6=46656 9=1
Convolution              p2o.Conv.180             1 1 relu_166.tmp_0 conv2d_508.tmp_0 0=72 1=3 4=-233 5=1 6=46656
BinaryOp                 p2o.Add.190              2 1 conv2d_508.tmp_0 relu_165.tmp_0_splitncnn_0 p2o.Add.191
ReLU                     p2o.Relu.167             1 1 p2o.Add.191 relu_167.tmp_0
Split                    splitncnn_89             1 2 relu_167.tmp_0 relu_167.tmp_0_splitncnn_0 relu_167.tmp_0_splitncnn_1
Convolution              p2o.Conv.181             1 1 relu_167.tmp_0_splitncnn_1 relu_168.tmp_0 0=72 1=3 4=-233 5=1 6=46656 9=1
Convolution              p2o.Conv.182             1 1 relu_168.tmp_0 conv2d_510.tmp_0 0=72 1=3 4=-233 5=1 6=46656
BinaryOp                 p2o.Add.192              2 1 conv2d_510.tmp_0 relu_167.tmp_0_splitncnn_0 p2o.Add.193
ReLU                     p2o.Relu.169             1 1 p2o.Add.193 relu_169.tmp_0
Split                    splitncnn_90             1 2 relu_169.tmp_0 relu_169.tmp_0_splitncnn_0 relu_169.tmp_0_splitncnn_1
Convolution              p2o.Conv.183             1 1 relu_169.tmp_0_splitncnn_1 relu_170.tmp_0 0=72 1=3 4=-233 5=1 6=46656 9=1
Convolution              p2o.Conv.184             1 1 relu_170.tmp_0 conv2d_512.tmp_0 0=72 1=3 4=-233 5=1 6=46656
BinaryOp                 p2o.Add.194              2 1 conv2d_512.tmp_0 relu_169.tmp_0_splitncnn_0 p2o.Add.195
ReLU                     p2o.Relu.171             1 1 p2o.Add.195 relu_171.tmp_0
Split                    splitncnn_91             1 4 relu_171.tmp_0 relu_171.tmp_0_splitncnn_0 relu_171.tmp_0_splitncnn_1 relu_171.tmp_0_splitncnn_2 relu_171.tmp_0_splitncnn_3
Convolution              p2o.Conv.185             1 1 relu_147.tmp_0_splitncnn_1 relu_172.tmp_0 0=144 1=3 4=-233 5=1 6=186624 9=1
Convolution              p2o.Conv.186             1 1 relu_172.tmp_0 conv2d_514.tmp_0 0=144 1=3 4=-233 5=1 6=186624
BinaryOp                 p2o.Add.196              2 1 conv2d_514.tmp_0 relu_147.tmp_0_splitncnn_0 p2o.Add.197
ReLU                     p2o.Relu.173             1 1 p2o.Add.197 relu_173.tmp_0
Split                    splitncnn_92             1 2 relu_173.tmp_0 relu_173.tmp_0_splitncnn_0 relu_173.tmp_0_splitncnn_1
Convolution              p2o.Conv.187             1 1 relu_173.tmp_0_splitncnn_1 relu_174.tmp_0 0=144 1=3 4=-233 5=1 6=186624 9=1
Convolution              p2o.Conv.188             1 1 relu_174.tmp_0 conv2d_516.tmp_0 0=144 1=3 4=-233 5=1 6=186624
BinaryOp                 p2o.Add.198              2 1 conv2d_516.tmp_0 relu_173.tmp_0_splitncnn_0 p2o.Add.199
ReLU                     p2o.Relu.175             1 1 p2o.Add.199 relu_175.tmp_0
Split                    splitncnn_93             1 2 relu_175.tmp_0 relu_175.tmp_0_splitncnn_0 relu_175.tmp_0_splitncnn_1
Convolution              p2o.Conv.189             1 1 relu_175.tmp_0_splitncnn_1 relu_176.tmp_0 0=144 1=3 4=-233 5=1 6=186624 9=1
Convolution              p2o.Conv.190             1 1 relu_176.tmp_0 conv2d_518.tmp_0 0=144 1=3 4=-233 5=1 6=186624
BinaryOp                 p2o.Add.200              2 1 conv2d_518.tmp_0 relu_175.tmp_0_splitncnn_0 p2o.Add.201
ReLU                     p2o.Relu.177             1 1 p2o.Add.201 relu_177.tmp_0
Split                    splitncnn_94             1 2 relu_177.tmp_0 relu_177.tmp_0_splitncnn_0 relu_177.tmp_0_splitncnn_1
Convolution              p2o.Conv.191             1 1 relu_177.tmp_0_splitncnn_1 relu_178.tmp_0 0=144 1=3 4=-233 5=1 6=186624 9=1
Convolution              p2o.Conv.192             1 1 relu_178.tmp_0 conv2d_520.tmp_0 0=144 1=3 4=-233 5=1 6=186624
BinaryOp                 p2o.Add.202              2 1 conv2d_520.tmp_0 relu_177.tmp_0_splitncnn_0 p2o.Add.203
ReLU                     p2o.Relu.179             1 1 p2o.Add.203 relu_179.tmp_0
Split                    splitncnn_95             1 4 relu_179.tmp_0 relu_179.tmp_0_splitncnn_0 relu_179.tmp_0_splitncnn_1 relu_179.tmp_0_splitncnn_2 relu_179.tmp_0_splitncnn_3
Convolution              p2o.Conv.193             1 1 relu_163.tmp_0_splitncnn_3 conv2d_521.tmp_0 0=18 1=1 4=-233 5=1 6=648
Interp                   p2o.Resize.13             2 1 conv2d_521.tmp_0 resize_ref_13 bilinear_interp_v2_13.tmp_0 0=2  1=0.25 2=0.25 
BinaryOp                 p2o.Add.204              2 1 relu_155.tmp_0_splitncnn_3 bilinear_interp_v2_13.tmp_0 p2o.Add.205
Convolution              p2o.Conv.194             1 1 relu_171.tmp_0_splitncnn_3 conv2d_522.tmp_0 0=18 1=1 4=-233 5=1 6=1296
Interp                   p2o.Resize.14             2 1 conv2d_522.tmp_0 resize_ref_14 bilinear_interp_v2_14.tmp_0 0=2  1=0.25 2=0.25 
BinaryOp                 p2o.Add.206              2 1 p2o.Add.205 bilinear_interp_v2_14.tmp_0 p2o.Add.207
Convolution              p2o.Conv.195             1 1 relu_179.tmp_0_splitncnn_3 conv2d_523.tmp_0 0=18 1=1 4=-233 5=1 6=2592
Interp                   p2o.Resize.15             2 1 conv2d_523.tmp_0 resize_ref_15 bilinear_interp_v2_15.tmp_0 0=2  1=0.25 2=0.25 
BinaryOp                 p2o.Add.208              2 1 p2o.Add.207 bilinear_interp_v2_15.tmp_0 p2o.Add.209
ReLU                     p2o.Relu.180             1 1 p2o.Add.209 relu_180.tmp_0
Split                    splitncnn_96             1 2 relu_180.tmp_0 relu_180.tmp_0_splitncnn_0 relu_180.tmp_0_splitncnn_1
Convolution              p2o.Conv.196             1 1 relu_155.tmp_0_splitncnn_2 conv2d_524.tmp_0 0=36 1=3 3=2 4=-233 5=1 6=5832
BinaryOp                 p2o.Add.210              2 1 relu_163.tmp_0_splitncnn_2 conv2d_524.tmp_0 p2o.Add.211
Convolution              p2o.Conv.197             1 1 relu_171.tmp_0_splitncnn_2 conv2d_525.tmp_0 0=36 1=1 4=-233 5=1 6=2592
Interp                   p2o.Resize.16             2 1 conv2d_525.tmp_0 resize_ref_16 bilinear_interp_v2_16.tmp_0 0=2  1=0.125 2=0.125 
BinaryOp                 p2o.Add.212              2 1 p2o.Add.211 bilinear_interp_v2_16.tmp_0 p2o.Add.213
Convolution              p2o.Conv.198             1 1 relu_179.tmp_0_splitncnn_2 conv2d_526.tmp_0 0=36 1=1 4=-233 5=1 6=5184
Interp                   p2o.Resize.17             2 1 conv2d_526.tmp_0 resize_ref_17 bilinear_interp_v2_17.tmp_0 0=2  1=0.125 2=0.125 
BinaryOp                 p2o.Add.214              2 1 p2o.Add.213 bilinear_interp_v2_17.tmp_0 p2o.Add.215
ReLU                     p2o.Relu.181             1 1 p2o.Add.215 relu_181.tmp_0
Split                    splitncnn_97             1 2 relu_181.tmp_0 relu_181.tmp_0_splitncnn_0 relu_181.tmp_0_splitncnn_1
Convolution              p2o.Conv.199             1 1 relu_155.tmp_0_splitncnn_1 relu_182.tmp_0 0=18 1=3 3=2 4=-233 5=1 6=2916 9=1
Convolution              p2o.Conv.200             1 1 relu_182.tmp_0 conv2d_528.tmp_0 0=72 1=3 3=2 4=-233 5=1 6=11664
BinaryOp                 p2o.Add.216              2 1 relu_171.tmp_0_splitncnn_1 conv2d_528.tmp_0 p2o.Add.217
Convolution              p2o.Conv.201             1 1 relu_163.tmp_0_splitncnn_1 conv2d_529.tmp_0 0=72 1=3 3=2 4=-233 5=1 6=23328
BinaryOp                 p2o.Add.218              2 1 p2o.Add.217 conv2d_529.tmp_0 p2o.Add.219
Convolution              p2o.Conv.202             1 1 relu_179.tmp_0_splitncnn_1 conv2d_530.tmp_0 0=72 1=1 4=-233 5=1 6=10368
Interp                   p2o.Resize.18             2 1 conv2d_530.tmp_0 resize_ref_18 bilinear_interp_v2_18.tmp_0 0=2  1=0.0625 2=0.0625 
BinaryOp                 p2o.Add.220              2 1 p2o.Add.219 bilinear_interp_v2_18.tmp_0 p2o.Add.221
ReLU                     p2o.Relu.183             1 1 p2o.Add.221 relu_183.tmp_0
Split                    splitncnn_98             1 2 relu_183.tmp_0 relu_183.tmp_0_splitncnn_0 relu_183.tmp_0_splitncnn_1
Convolution              p2o.Conv.203             1 1 relu_155.tmp_0_splitncnn_0 relu_184.tmp_0 0=18 1=3 3=2 4=-233 5=1 6=2916 9=1
Convolution              p2o.Conv.204             1 1 relu_184.tmp_0 relu_185.tmp_0 0=18 1=3 3=2 4=-233 5=1 6=2916 9=1
Convolution              p2o.Conv.205             1 1 relu_185.tmp_0 conv2d_533.tmp_0 0=144 1=3 3=2 4=-233 5=1 6=23328
BinaryOp                 p2o.Add.222              2 1 relu_179.tmp_0_splitncnn_0 conv2d_533.tmp_0 p2o.Add.223
Convolution              p2o.Conv.206             1 1 relu_163.tmp_0_splitncnn_0 relu_186.tmp_0 0=36 1=3 3=2 4=-233 5=1 6=11664 9=1
Convolution              p2o.Conv.207             1 1 relu_186.tmp_0 conv2d_535.tmp_0 0=144 1=3 3=2 4=-233 5=1 6=46656
BinaryOp                 p2o.Add.224              2 1 p2o.Add.223 conv2d_535.tmp_0 p2o.Add.225
Convolution              p2o.Conv.208             1 1 relu_171.tmp_0_splitncnn_0 conv2d_536.tmp_0 0=144 1=3 3=2 4=-233 5=1 6=93312
BinaryOp                 p2o.Add.226              2 1 p2o.Add.225 conv2d_536.tmp_0 p2o.Add.227
ReLU                     p2o.Relu.187             1 1 p2o.Add.227 relu_187.tmp_0
Split                    splitncnn_99             1 2 relu_187.tmp_0 relu_187.tmp_0_splitncnn_0 relu_187.tmp_0_splitncnn_1
Convolution              p2o.Conv.209             1 1 relu_180.tmp_0_splitncnn_1 relu_188.tmp_0 0=18 1=3 4=-233 5=1 6=2916 9=1
Convolution              p2o.Conv.210             1 1 relu_188.tmp_0 conv2d_538.tmp_0 0=18 1=3 4=-233 5=1 6=2916
BinaryOp                 p2o.Add.228              2 1 conv2d_538.tmp_0 relu_180.tmp_0_splitncnn_0 p2o.Add.229
ReLU                     p2o.Relu.189             1 1 p2o.Add.229 relu_189.tmp_0
Split                    splitncnn_100            1 2 relu_189.tmp_0 relu_189.tmp_0_splitncnn_0 relu_189.tmp_0_splitncnn_1
Convolution              p2o.Conv.211             1 1 relu_189.tmp_0_splitncnn_1 relu_190.tmp_0 0=18 1=3 4=-233 5=1 6=2916 9=1
Convolution              p2o.Conv.212             1 1 relu_190.tmp_0 conv2d_540.tmp_0 0=18 1=3 4=-233 5=1 6=2916
BinaryOp                 p2o.Add.230              2 1 conv2d_540.tmp_0 relu_189.tmp_0_splitncnn_0 p2o.Add.231
ReLU                     p2o.Relu.191             1 1 p2o.Add.231 relu_191.tmp_0
Split                    splitncnn_101            1 2 relu_191.tmp_0 relu_191.tmp_0_splitncnn_0 relu_191.tmp_0_splitncnn_1
Convolution              p2o.Conv.213             1 1 relu_191.tmp_0_splitncnn_1 relu_192.tmp_0 0=18 1=3 4=-233 5=1 6=2916 9=1
Convolution              p2o.Conv.214             1 1 relu_192.tmp_0 conv2d_542.tmp_0 0=18 1=3 4=-233 5=1 6=2916
BinaryOp                 p2o.Add.232              2 1 conv2d_542.tmp_0 relu_191.tmp_0_splitncnn_0 p2o.Add.233
ReLU                     p2o.Relu.193             1 1 p2o.Add.233 relu_193.tmp_0
Split                    splitncnn_102            1 2 relu_193.tmp_0 relu_193.tmp_0_splitncnn_0 relu_193.tmp_0_splitncnn_1
Convolution              p2o.Conv.215             1 1 relu_193.tmp_0_splitncnn_1 relu_194.tmp_0 0=18 1=3 4=-233 5=1 6=2916 9=1
Convolution              p2o.Conv.216             1 1 relu_194.tmp_0 conv2d_544.tmp_0 0=18 1=3 4=-233 5=1 6=2916
BinaryOp                 p2o.Add.234              2 1 conv2d_544.tmp_0 relu_193.tmp_0_splitncnn_0 p2o.Add.235
ReLU                     p2o.Relu.195             1 1 p2o.Add.235 relu_195.tmp_0
Split                    splitncnn_103            1 4 relu_195.tmp_0 relu_195.tmp_0_splitncnn_0 relu_195.tmp_0_splitncnn_1 relu_195.tmp_0_splitncnn_2 relu_195.tmp_0_splitncnn_3
Convolution              p2o.Conv.217             1 1 relu_181.tmp_0_splitncnn_1 relu_196.tmp_0 0=36 1=3 4=-233 5=1 6=11664 9=1
Convolution              p2o.Conv.218             1 1 relu_196.tmp_0 conv2d_546.tmp_0 0=36 1=3 4=-233 5=1 6=11664
BinaryOp                 p2o.Add.236              2 1 conv2d_546.tmp_0 relu_181.tmp_0_splitncnn_0 p2o.Add.237
ReLU                     p2o.Relu.197             1 1 p2o.Add.237 relu_197.tmp_0
Split                    splitncnn_104            1 2 relu_197.tmp_0 relu_197.tmp_0_splitncnn_0 relu_197.tmp_0_splitncnn_1
Convolution              p2o.Conv.219             1 1 relu_197.tmp_0_splitncnn_1 relu_198.tmp_0 0=36 1=3 4=-233 5=1 6=11664 9=1
Convolution              p2o.Conv.220             1 1 relu_198.tmp_0 conv2d_548.tmp_0 0=36 1=3 4=-233 5=1 6=11664
BinaryOp                 p2o.Add.238              2 1 conv2d_548.tmp_0 relu_197.tmp_0_splitncnn_0 p2o.Add.239
ReLU                     p2o.Relu.199             1 1 p2o.Add.239 relu_199.tmp_0
Split                    splitncnn_105            1 2 relu_199.tmp_0 relu_199.tmp_0_splitncnn_0 relu_199.tmp_0_splitncnn_1
Convolution              p2o.Conv.221             1 1 relu_199.tmp_0_splitncnn_1 relu_200.tmp_0 0=36 1=3 4=-233 5=1 6=11664 9=1
Convolution              p2o.Conv.222             1 1 relu_200.tmp_0 conv2d_550.tmp_0 0=36 1=3 4=-233 5=1 6=11664
BinaryOp                 p2o.Add.240              2 1 conv2d_550.tmp_0 relu_199.tmp_0_splitncnn_0 p2o.Add.241
ReLU                     p2o.Relu.201             1 1 p2o.Add.241 relu_201.tmp_0
Split                    splitncnn_106            1 2 relu_201.tmp_0 relu_201.tmp_0_splitncnn_0 relu_201.tmp_0_splitncnn_1
Convolution              p2o.Conv.223             1 1 relu_201.tmp_0_splitncnn_1 relu_202.tmp_0 0=36 1=3 4=-233 5=1 6=11664 9=1
Convolution              p2o.Conv.224             1 1 relu_202.tmp_0 conv2d_552.tmp_0 0=36 1=3 4=-233 5=1 6=11664
BinaryOp                 p2o.Add.242              2 1 conv2d_552.tmp_0 relu_201.tmp_0_splitncnn_0 p2o.Add.243
ReLU                     p2o.Relu.203             1 1 p2o.Add.243 relu_203.tmp_0
Split                    splitncnn_107            1 4 relu_203.tmp_0 relu_203.tmp_0_splitncnn_0 relu_203.tmp_0_splitncnn_1 relu_203.tmp_0_splitncnn_2 relu_203.tmp_0_splitncnn_3
Convolution              p2o.Conv.225             1 1 relu_183.tmp_0_splitncnn_1 relu_204.tmp_0 0=72 1=3 4=-233 5=1 6=46656 9=1
Convolution              p2o.Conv.226             1 1 relu_204.tmp_0 conv2d_554.tmp_0 0=72 1=3 4=-233 5=1 6=46656
BinaryOp                 p2o.Add.244              2 1 conv2d_554.tmp_0 relu_183.tmp_0_splitncnn_0 p2o.Add.245
ReLU                     p2o.Relu.205             1 1 p2o.Add.245 relu_205.tmp_0
Split                    splitncnn_108            1 2 relu_205.tmp_0 relu_205.tmp_0_splitncnn_0 relu_205.tmp_0_splitncnn_1
Convolution              p2o.Conv.227             1 1 relu_205.tmp_0_splitncnn_1 relu_206.tmp_0 0=72 1=3 4=-233 5=1 6=46656 9=1
Convolution              p2o.Conv.228             1 1 relu_206.tmp_0 conv2d_556.tmp_0 0=72 1=3 4=-233 5=1 6=46656
BinaryOp                 p2o.Add.246              2 1 conv2d_556.tmp_0 relu_205.tmp_0_splitncnn_0 p2o.Add.247
ReLU                     p2o.Relu.207             1 1 p2o.Add.247 relu_207.tmp_0
Split                    splitncnn_109            1 2 relu_207.tmp_0 relu_207.tmp_0_splitncnn_0 relu_207.tmp_0_splitncnn_1
Convolution              p2o.Conv.229             1 1 relu_207.tmp_0_splitncnn_1 relu_208.tmp_0 0=72 1=3 4=-233 5=1 6=46656 9=1
Convolution              p2o.Conv.230             1 1 relu_208.tmp_0 conv2d_558.tmp_0 0=72 1=3 4=-233 5=1 6=46656
BinaryOp                 p2o.Add.248              2 1 conv2d_558.tmp_0 relu_207.tmp_0_splitncnn_0 p2o.Add.249
ReLU                     p2o.Relu.209             1 1 p2o.Add.249 relu_209.tmp_0
Split                    splitncnn_110            1 2 relu_209.tmp_0 relu_209.tmp_0_splitncnn_0 relu_209.tmp_0_splitncnn_1
Convolution              p2o.Conv.231             1 1 relu_209.tmp_0_splitncnn_1 relu_210.tmp_0 0=72 1=3 4=-233 5=1 6=46656 9=1
Convolution              p2o.Conv.232             1 1 relu_210.tmp_0 conv2d_560.tmp_0 0=72 1=3 4=-233 5=1 6=46656
BinaryOp                 p2o.Add.250              2 1 conv2d_560.tmp_0 relu_209.tmp_0_splitncnn_0 p2o.Add.251
ReLU                     p2o.Relu.211             1 1 p2o.Add.251 relu_211.tmp_0
Split                    splitncnn_111            1 4 relu_211.tmp_0 relu_211.tmp_0_splitncnn_0 relu_211.tmp_0_splitncnn_1 relu_211.tmp_0_splitncnn_2 relu_211.tmp_0_splitncnn_3
Convolution              p2o.Conv.233             1 1 relu_187.tmp_0_splitncnn_1 relu_212.tmp_0 0=144 1=3 4=-233 5=1 6=186624 9=1
Convolution              p2o.Conv.234             1 1 relu_212.tmp_0 conv2d_562.tmp_0 0=144 1=3 4=-233 5=1 6=186624
BinaryOp                 p2o.Add.252              2 1 conv2d_562.tmp_0 relu_187.tmp_0_splitncnn_0 p2o.Add.253
ReLU                     p2o.Relu.213             1 1 p2o.Add.253 relu_213.tmp_0
Split                    splitncnn_112            1 2 relu_213.tmp_0 relu_213.tmp_0_splitncnn_0 relu_213.tmp_0_splitncnn_1
Convolution              p2o.Conv.235             1 1 relu_213.tmp_0_splitncnn_1 relu_214.tmp_0 0=144 1=3 4=-233 5=1 6=186624 9=1
Convolution              p2o.Conv.236             1 1 relu_214.tmp_0 conv2d_564.tmp_0 0=144 1=3 4=-233 5=1 6=186624
BinaryOp                 p2o.Add.254              2 1 conv2d_564.tmp_0 relu_213.tmp_0_splitncnn_0 p2o.Add.255
ReLU                     p2o.Relu.215             1 1 p2o.Add.255 relu_215.tmp_0
Split                    splitncnn_113            1 2 relu_215.tmp_0 relu_215.tmp_0_splitncnn_0 relu_215.tmp_0_splitncnn_1
Convolution              p2o.Conv.237             1 1 relu_215.tmp_0_splitncnn_1 relu_216.tmp_0 0=144 1=3 4=-233 5=1 6=186624 9=1
Convolution              p2o.Conv.238             1 1 relu_216.tmp_0 conv2d_566.tmp_0 0=144 1=3 4=-233 5=1 6=186624
BinaryOp                 p2o.Add.256              2 1 conv2d_566.tmp_0 relu_215.tmp_0_splitncnn_0 p2o.Add.257
ReLU                     p2o.Relu.217             1 1 p2o.Add.257 relu_217.tmp_0
Split                    splitncnn_114            1 2 relu_217.tmp_0 relu_217.tmp_0_splitncnn_0 relu_217.tmp_0_splitncnn_1
Convolution              p2o.Conv.239             1 1 relu_217.tmp_0_splitncnn_1 relu_218.tmp_0 0=144 1=3 4=-233 5=1 6=186624 9=1
Convolution              p2o.Conv.240             1 1 relu_218.tmp_0 conv2d_568.tmp_0 0=144 1=3 4=-233 5=1 6=186624
BinaryOp                 p2o.Add.258              2 1 conv2d_568.tmp_0 relu_217.tmp_0_splitncnn_0 p2o.Add.259
ReLU                     p2o.Relu.219             1 1 p2o.Add.259 relu_219.tmp_0
Split                    splitncnn_115            1 4 relu_219.tmp_0 relu_219.tmp_0_splitncnn_0 relu_219.tmp_0_splitncnn_1 relu_219.tmp_0_splitncnn_2 relu_219.tmp_0_splitncnn_3
Convolution              p2o.Conv.241             1 1 relu_203.tmp_0_splitncnn_3 conv2d_569.tmp_0 0=18 1=1 4=-233 5=1 6=648
Interp                   p2o.Resize.19             2 1 conv2d_569.tmp_0 resize_ref_19 bilinear_interp_v2_19.tmp_0 0=2  1=0.25 2=0.25 
BinaryOp                 p2o.Add.260              2 1 relu_195.tmp_0_splitncnn_3 bilinear_interp_v2_19.tmp_0 p2o.Add.261
Convolution              p2o.Conv.242             1 1 relu_211.tmp_0_splitncnn_3 conv2d_570.tmp_0 0=18 1=1 4=-233 5=1 6=1296
Interp                   p2o.Resize.20             2 1 conv2d_570.tmp_0 resize_ref_20 bilinear_interp_v2_20.tmp_0 0=2  1=0.25 2=0.25 
BinaryOp                 p2o.Add.262              2 1 p2o.Add.261 bilinear_interp_v2_20.tmp_0 p2o.Add.263
Convolution              p2o.Conv.243             1 1 relu_219.tmp_0_splitncnn_3 conv2d_571.tmp_0 0=18 1=1 4=-233 5=1 6=2592
Interp                   p2o.Resize.21             2 1 conv2d_571.tmp_0 resize_ref_21 bilinear_interp_v2_21.tmp_0 0=2  1=0.25 2=0.25 
BinaryOp                 p2o.Add.264              2 1 p2o.Add.263 bilinear_interp_v2_21.tmp_0 p2o.Add.265
ReLU                     p2o.Relu.220             1 1 p2o.Add.265 relu_220.tmp_0
Split                    splitncnn_116            1 2 relu_220.tmp_0 relu_220.tmp_0_splitncnn_0 relu_220.tmp_0_splitncnn_1
Convolution              p2o.Conv.244             1 1 relu_195.tmp_0_splitncnn_2 conv2d_572.tmp_0 0=36 1=3 3=2 4=-233 5=1 6=5832
BinaryOp                 p2o.Add.266              2 1 relu_203.tmp_0_splitncnn_2 conv2d_572.tmp_0 p2o.Add.267
Convolution              p2o.Conv.245             1 1 relu_211.tmp_0_splitncnn_2 conv2d_573.tmp_0 0=36 1=1 4=-233 5=1 6=2592
Interp                   p2o.Resize.22             2 1 conv2d_573.tmp_0 resize_ref_22 bilinear_interp_v2_22.tmp_0 0=2  1=0.125 2=0.125 
BinaryOp                 p2o.Add.268              2 1 p2o.Add.267 bilinear_interp_v2_22.tmp_0 p2o.Add.269
Convolution              p2o.Conv.246             1 1 relu_219.tmp_0_splitncnn_2 conv2d_574.tmp_0 0=36 1=1 4=-233 5=1 6=5184
Interp                   p2o.Resize.23             2 1 conv2d_574.tmp_0 resize_ref_23 bilinear_interp_v2_23.tmp_0 0=2  1=0.125 2=0.125 
BinaryOp                 p2o.Add.270              2 1 p2o.Add.269 bilinear_interp_v2_23.tmp_0 p2o.Add.271
ReLU                     p2o.Relu.221             1 1 p2o.Add.271 relu_221.tmp_0
Split                    splitncnn_117            1 2 relu_221.tmp_0 relu_221.tmp_0_splitncnn_0 relu_221.tmp_0_splitncnn_1
Convolution              p2o.Conv.247             1 1 relu_195.tmp_0_splitncnn_1 relu_222.tmp_0 0=18 1=3 3=2 4=-233 5=1 6=2916 9=1
Convolution              p2o.Conv.248             1 1 relu_222.tmp_0 conv2d_576.tmp_0 0=72 1=3 3=2 4=-233 5=1 6=11664
BinaryOp                 p2o.Add.272              2 1 relu_211.tmp_0_splitncnn_1 conv2d_576.tmp_0 p2o.Add.273
Convolution              p2o.Conv.249             1 1 relu_203.tmp_0_splitncnn_1 conv2d_577.tmp_0 0=72 1=3 3=2 4=-233 5=1 6=23328
BinaryOp                 p2o.Add.274              2 1 p2o.Add.273 conv2d_577.tmp_0 p2o.Add.275
Convolution              p2o.Conv.250             1 1 relu_219.tmp_0_splitncnn_1 conv2d_578.tmp_0 0=72 1=1 4=-233 5=1 6=10368
Interp                   p2o.Resize.24             2 1 conv2d_578.tmp_0 resize_ref_24 bilinear_interp_v2_24.tmp_0 0=2  1=0.0625 2=0.0625 
BinaryOp                 p2o.Add.276              2 1 p2o.Add.275 bilinear_interp_v2_24.tmp_0 p2o.Add.277
ReLU                     p2o.Relu.223             1 1 p2o.Add.277 relu_223.tmp_0
Split                    splitncnn_118            1 2 relu_223.tmp_0 relu_223.tmp_0_splitncnn_0 relu_223.tmp_0_splitncnn_1
Convolution              p2o.Conv.251             1 1 relu_195.tmp_0_splitncnn_0 relu_224.tmp_0 0=18 1=3 3=2 4=-233 5=1 6=2916 9=1
Convolution              p2o.Conv.252             1 1 relu_224.tmp_0 relu_225.tmp_0 0=18 1=3 3=2 4=-233 5=1 6=2916 9=1
Convolution              p2o.Conv.253             1 1 relu_225.tmp_0 conv2d_581.tmp_0 0=144 1=3 3=2 4=-233 5=1 6=23328
BinaryOp                 p2o.Add.278              2 1 relu_219.tmp_0_splitncnn_0 conv2d_581.tmp_0 p2o.Add.279
Convolution              p2o.Conv.254             1 1 relu_203.tmp_0_splitncnn_0 relu_226.tmp_0 0=36 1=3 3=2 4=-233 5=1 6=11664 9=1
Convolution              p2o.Conv.255             1 1 relu_226.tmp_0 conv2d_583.tmp_0 0=144 1=3 3=2 4=-233 5=1 6=46656
BinaryOp                 p2o.Add.280              2 1 p2o.Add.279 conv2d_583.tmp_0 p2o.Add.281
Convolution              p2o.Conv.256             1 1 relu_211.tmp_0_splitncnn_0 conv2d_584.tmp_0 0=144 1=3 3=2 4=-233 5=1 6=93312
BinaryOp                 p2o.Add.282              2 1 p2o.Add.281 conv2d_584.tmp_0 p2o.Add.283
ReLU                     p2o.Relu.227             1 1 p2o.Add.283 relu_227.tmp_0
Split                    splitncnn_119            1 2 relu_227.tmp_0 relu_227.tmp_0_splitncnn_0 relu_227.tmp_0_splitncnn_1
Convolution              p2o.Conv.257             1 1 relu_220.tmp_0_splitncnn_1 relu_228.tmp_0 0=18 1=3 4=-233 5=1 6=2916 9=1
Convolution              p2o.Conv.258             1 1 relu_228.tmp_0 conv2d_586.tmp_0 0=18 1=3 4=-233 5=1 6=2916
BinaryOp                 p2o.Add.284              2 1 conv2d_586.tmp_0 relu_220.tmp_0_splitncnn_0 p2o.Add.285
ReLU                     p2o.Relu.229             1 1 p2o.Add.285 relu_229.tmp_0
Split                    splitncnn_120            1 2 relu_229.tmp_0 relu_229.tmp_0_splitncnn_0 relu_229.tmp_0_splitncnn_1
Convolution              p2o.Conv.259             1 1 relu_229.tmp_0_splitncnn_1 relu_230.tmp_0 0=18 1=3 4=-233 5=1 6=2916 9=1
Convolution              p2o.Conv.260             1 1 relu_230.tmp_0 conv2d_588.tmp_0 0=18 1=3 4=-233 5=1 6=2916
BinaryOp                 p2o.Add.286              2 1 conv2d_588.tmp_0 relu_229.tmp_0_splitncnn_0 p2o.Add.287
ReLU                     p2o.Relu.231             1 1 p2o.Add.287 relu_231.tmp_0
Split                    splitncnn_121            1 2 relu_231.tmp_0 relu_231.tmp_0_splitncnn_0 relu_231.tmp_0_splitncnn_1
Convolution              p2o.Conv.261             1 1 relu_231.tmp_0_splitncnn_1 relu_232.tmp_0 0=18 1=3 4=-233 5=1 6=2916 9=1
Convolution              p2o.Conv.262             1 1 relu_232.tmp_0 conv2d_590.tmp_0 0=18 1=3 4=-233 5=1 6=2916
BinaryOp                 p2o.Add.288              2 1 conv2d_590.tmp_0 relu_231.tmp_0_splitncnn_0 p2o.Add.289
ReLU                     p2o.Relu.233             1 1 p2o.Add.289 relu_233.tmp_0
Split                    splitncnn_122            1 2 relu_233.tmp_0 relu_233.tmp_0_splitncnn_0 relu_233.tmp_0_splitncnn_1
Convolution              p2o.Conv.263             1 1 relu_233.tmp_0_splitncnn_1 relu_234.tmp_0 0=18 1=3 4=-233 5=1 6=2916 9=1
Convolution              p2o.Conv.264             1 1 relu_234.tmp_0 conv2d_592.tmp_0 0=18 1=3 4=-233 5=1 6=2916
BinaryOp                 p2o.Add.290              2 1 conv2d_592.tmp_0 relu_233.tmp_0_splitncnn_0 p2o.Add.291
ReLU                     p2o.Relu.235             1 1 p2o.Add.291 relu_235.tmp_0
Split                    splitncnn_123            1 2 relu_235.tmp_0 relu_235.tmp_0_splitncnn_0 relu_235.tmp_0_splitncnn_1
Convolution              p2o.Conv.265             1 1 relu_221.tmp_0_splitncnn_1 relu_236.tmp_0 0=36 1=3 4=-233 5=1 6=11664 9=1
Convolution              p2o.Conv.266             1 1 relu_236.tmp_0 conv2d_594.tmp_0 0=36 1=3 4=-233 5=1 6=11664
BinaryOp                 p2o.Add.292              2 1 conv2d_594.tmp_0 relu_221.tmp_0_splitncnn_0 p2o.Add.293
ReLU                     p2o.Relu.237             1 1 p2o.Add.293 relu_237.tmp_0
Split                    splitncnn_124            1 2 relu_237.tmp_0 relu_237.tmp_0_splitncnn_0 relu_237.tmp_0_splitncnn_1
Convolution              p2o.Conv.267             1 1 relu_237.tmp_0_splitncnn_1 relu_238.tmp_0 0=36 1=3 4=-233 5=1 6=11664 9=1
Convolution              p2o.Conv.268             1 1 relu_238.tmp_0 conv2d_596.tmp_0 0=36 1=3 4=-233 5=1 6=11664
BinaryOp                 p2o.Add.294              2 1 conv2d_596.tmp_0 relu_237.tmp_0_splitncnn_0 p2o.Add.295
ReLU                     p2o.Relu.239             1 1 p2o.Add.295 relu_239.tmp_0
Split                    splitncnn_125            1 2 relu_239.tmp_0 relu_239.tmp_0_splitncnn_0 relu_239.tmp_0_splitncnn_1
Convolution              p2o.Conv.269             1 1 relu_239.tmp_0_splitncnn_1 relu_240.tmp_0 0=36 1=3 4=-233 5=1 6=11664 9=1
Convolution              p2o.Conv.270             1 1 relu_240.tmp_0 conv2d_598.tmp_0 0=36 1=3 4=-233 5=1 6=11664
BinaryOp                 p2o.Add.296              2 1 conv2d_598.tmp_0 relu_239.tmp_0_splitncnn_0 p2o.Add.297
ReLU                     p2o.Relu.241             1 1 p2o.Add.297 relu_241.tmp_0
Split                    splitncnn_126            1 2 relu_241.tmp_0 relu_241.tmp_0_splitncnn_0 relu_241.tmp_0_splitncnn_1
Convolution              p2o.Conv.271             1 1 relu_241.tmp_0_splitncnn_1 relu_242.tmp_0 0=36 1=3 4=-233 5=1 6=11664 9=1
Convolution              p2o.Conv.272             1 1 relu_242.tmp_0 conv2d_600.tmp_0 0=36 1=3 4=-233 5=1 6=11664
BinaryOp                 p2o.Add.298              2 1 conv2d_600.tmp_0 relu_241.tmp_0_splitncnn_0 p2o.Add.299
ReLU                     p2o.Relu.243             1 1 p2o.Add.299 relu_243.tmp_0
Split                    splitncnn_127            1 2 relu_243.tmp_0 relu_243.tmp_0_splitncnn_0 relu_243.tmp_0_splitncnn_1
Convolution              p2o.Conv.273             1 1 relu_223.tmp_0_splitncnn_1 relu_244.tmp_0 0=72 1=3 4=-233 5=1 6=46656 9=1
Convolution              p2o.Conv.274             1 1 relu_244.tmp_0 conv2d_602.tmp_0 0=72 1=3 4=-233 5=1 6=46656
BinaryOp                 p2o.Add.300              2 1 conv2d_602.tmp_0 relu_223.tmp_0_splitncnn_0 p2o.Add.301
ReLU                     p2o.Relu.245             1 1 p2o.Add.301 relu_245.tmp_0
Split                    splitncnn_128            1 2 relu_245.tmp_0 relu_245.tmp_0_splitncnn_0 relu_245.tmp_0_splitncnn_1
Convolution              p2o.Conv.275             1 1 relu_245.tmp_0_splitncnn_1 relu_246.tmp_0 0=72 1=3 4=-233 5=1 6=46656 9=1
Convolution              p2o.Conv.276             1 1 relu_246.tmp_0 conv2d_604.tmp_0 0=72 1=3 4=-233 5=1 6=46656
BinaryOp                 p2o.Add.302              2 1 conv2d_604.tmp_0 relu_245.tmp_0_splitncnn_0 p2o.Add.303
ReLU                     p2o.Relu.247             1 1 p2o.Add.303 relu_247.tmp_0
Split                    splitncnn_129            1 2 relu_247.tmp_0 relu_247.tmp_0_splitncnn_0 relu_247.tmp_0_splitncnn_1
Convolution              p2o.Conv.277             1 1 relu_247.tmp_0_splitncnn_1 relu_248.tmp_0 0=72 1=3 4=-233 5=1 6=46656 9=1
Convolution              p2o.Conv.278             1 1 relu_248.tmp_0 conv2d_606.tmp_0 0=72 1=3 4=-233 5=1 6=46656
BinaryOp                 p2o.Add.304              2 1 conv2d_606.tmp_0 relu_247.tmp_0_splitncnn_0 p2o.Add.305
ReLU                     p2o.Relu.249             1 1 p2o.Add.305 relu_249.tmp_0
Split                    splitncnn_130            1 2 relu_249.tmp_0 relu_249.tmp_0_splitncnn_0 relu_249.tmp_0_splitncnn_1
Convolution              p2o.Conv.279             1 1 relu_249.tmp_0_splitncnn_1 relu_250.tmp_0 0=72 1=3 4=-233 5=1 6=46656 9=1
Convolution              p2o.Conv.280             1 1 relu_250.tmp_0 conv2d_608.tmp_0 0=72 1=3 4=-233 5=1 6=46656
BinaryOp                 p2o.Add.306              2 1 conv2d_608.tmp_0 relu_249.tmp_0_splitncnn_0 p2o.Add.307
ReLU                     p2o.Relu.251             1 1 p2o.Add.307 relu_251.tmp_0
Split                    splitncnn_131            1 2 relu_251.tmp_0 relu_251.tmp_0_splitncnn_0 relu_251.tmp_0_splitncnn_1
Convolution              p2o.Conv.281             1 1 relu_227.tmp_0_splitncnn_1 relu_252.tmp_0 0=144 1=3 4=-233 5=1 6=186624 9=1
Convolution              p2o.Conv.282             1 1 relu_252.tmp_0 conv2d_610.tmp_0 0=144 1=3 4=-233 5=1 6=186624
BinaryOp                 p2o.Add.308              2 1 conv2d_610.tmp_0 relu_227.tmp_0_splitncnn_0 p2o.Add.309
ReLU                     p2o.Relu.253             1 1 p2o.Add.309 relu_253.tmp_0
Split                    splitncnn_132            1 2 relu_253.tmp_0 relu_253.tmp_0_splitncnn_0 relu_253.tmp_0_splitncnn_1
Convolution              p2o.Conv.283             1 1 relu_253.tmp_0_splitncnn_1 relu_254.tmp_0 0=144 1=3 4=-233 5=1 6=186624 9=1
Convolution              p2o.Conv.284             1 1 relu_254.tmp_0 conv2d_612.tmp_0 0=144 1=3 4=-233 5=1 6=186624
BinaryOp                 p2o.Add.310              2 1 conv2d_612.tmp_0 relu_253.tmp_0_splitncnn_0 p2o.Add.311
ReLU                     p2o.Relu.255             1 1 p2o.Add.311 relu_255.tmp_0
Split                    splitncnn_133            1 2 relu_255.tmp_0 relu_255.tmp_0_splitncnn_0 relu_255.tmp_0_splitncnn_1
Convolution              p2o.Conv.285             1 1 relu_255.tmp_0_splitncnn_1 relu_256.tmp_0 0=144 1=3 4=-233 5=1 6=186624 9=1
Convolution              p2o.Conv.286             1 1 relu_256.tmp_0 conv2d_614.tmp_0 0=144 1=3 4=-233 5=1 6=186624
BinaryOp                 p2o.Add.312              2 1 conv2d_614.tmp_0 relu_255.tmp_0_splitncnn_0 p2o.Add.313
ReLU                     p2o.Relu.257             1 1 p2o.Add.313 relu_257.tmp_0
Split                    splitncnn_134            1 2 relu_257.tmp_0 relu_257.tmp_0_splitncnn_0 relu_257.tmp_0_splitncnn_1
Convolution              p2o.Conv.287             1 1 relu_257.tmp_0_splitncnn_1 relu_258.tmp_0 0=144 1=3 4=-233 5=1 6=186624 9=1
Convolution              p2o.Conv.288             1 1 relu_258.tmp_0 conv2d_616.tmp_0 0=144 1=3 4=-233 5=1 6=186624
BinaryOp                 p2o.Add.314              2 1 conv2d_616.tmp_0 relu_257.tmp_0_splitncnn_0 p2o.Add.315
ReLU                     p2o.Relu.259             1 1 p2o.Add.315 relu_259.tmp_0
Split                    splitncnn_135            1 2 relu_259.tmp_0 relu_259.tmp_0_splitncnn_0 relu_259.tmp_0_splitncnn_1
Convolution              p2o.Conv.289             1 1 relu_243.tmp_0_splitncnn_1 conv2d_617.tmp_0 0=18 1=1 4=-233 5=1 6=648
Interp                   p2o.Resize.25             2 1 conv2d_617.tmp_0 resize_ref_25 bilinear_interp_v2_25.tmp_0 0=2  1=0.25 2=0.25 
BinaryOp                 p2o.Add.316              2 1 relu_235.tmp_0_splitncnn_1 bilinear_interp_v2_25.tmp_0 p2o.Add.317
Convolution              p2o.Conv.290             1 1 relu_251.tmp_0_splitncnn_1 conv2d_618.tmp_0 0=18 1=1 4=-233 5=1 6=1296
Interp                   p2o.Resize.26             2 1 conv2d_618.tmp_0 resize_ref_26 bilinear_interp_v2_26.tmp_0 0=2  1=0.25 2=0.25 
BinaryOp                 p2o.Add.318              2 1 p2o.Add.317 bilinear_interp_v2_26.tmp_0 p2o.Add.319
Convolution              p2o.Conv.291             1 1 relu_259.tmp_0_splitncnn_1 conv2d_619.tmp_0 0=18 1=1 4=-233 5=1 6=2592
Interp                   p2o.Resize.27             2 1 conv2d_619.tmp_0 resize_ref_27 bilinear_interp_v2_27.tmp_0 0=2  1=0.25 2=0.25 
BinaryOp                 p2o.Add.320              2 1 p2o.Add.319 bilinear_interp_v2_27.tmp_0 p2o.Add.321
ReLU                     p2o.Relu.260             1 1 p2o.Add.321 relu_260.tmp_0
Convolution              p2o.Conv.292             1 1 relu_235.tmp_0_splitncnn_0 relu_264.tmp_0 0=18 1=3 3=2 4=-233 5=1 6=2916 9=1
Convolution              p2o.Conv.293             1 1 relu_264.tmp_0 relu_265.tmp_0 0=18 1=3 3=2 4=-233 5=1 6=2916 9=1
Convolution              p2o.Conv.294             1 1 relu_265.tmp_0 conv2d_629.tmp_0 0=144 1=3 3=2 4=-233 5=1 6=23328
BinaryOp                 p2o.Add.322              2 1 relu_259.tmp_0_splitncnn_0 conv2d_629.tmp_0 p2o.Add.323
Convolution              p2o.Conv.295             1 1 relu_243.tmp_0_splitncnn_0 relu_266.tmp_0 0=36 1=3 3=2 4=-233 5=1 6=11664 9=1
Convolution              p2o.Conv.296             1 1 relu_266.tmp_0 conv2d_631.tmp_0 0=144 1=3 3=2 4=-233 5=1 6=46656
BinaryOp                 p2o.Add.324              2 1 p2o.Add.323 conv2d_631.tmp_0 p2o.Add.325
Convolution              p2o.Conv.297             1 1 relu_251.tmp_0_splitncnn_0 conv2d_632.tmp_0 0=144 1=3 3=2 4=-233 5=1 6=93312
BinaryOp                 p2o.Add.326              2 1 p2o.Add.325 conv2d_632.tmp_0 p2o.Add.327
ReLU                     p2o.Relu.264             1 1 p2o.Add.327 relu_267.tmp_0
Split                    splitncnn_136            1 2 relu_267.tmp_0 relu_267.tmp_0_splitncnn_0 relu_267.tmp_0_splitncnn_1
Pooling                  p2o.GlobalAveragePool.0  1 1 relu_267.tmp_0_splitncnn_1 p2o.GlobalAveragePool.3 0=1 4=1
ExpandDims               p2o.Unsqueeze.1          1 1 p2o.GlobalAveragePool.3 p2o.GlobalAveragePool.2 0=1
ExpandDims               p2o.Unsqueeze.2          1 1 p2o.GlobalAveragePool.2 p2o.GlobalAveragePool.1 0=1
InnerProduct             p2o.Conv.298             1 1 p2o.GlobalAveragePool.1 relu_268.tmp_3 0=36 2=5184 9=1
ExpandDims               p2o.Unsqueeze.3          1 1 relu_268.tmp_3 relu_268.tmp_2 0=1
ExpandDims               p2o.Unsqueeze.4          1 1 relu_268.tmp_2 relu_268.tmp_0 0=1
InnerProduct             p2o.Conv.299             1 1 relu_268.tmp_0 sigmoid_1.tmp_2 0=144 2=5184 9=4
ExpandDims               p2o.Unsqueeze.5          1 1 sigmoid_1.tmp_2 sigmoid_1.tmp_1 0=1
ExpandDims               p2o.Unsqueeze.6          1 1 sigmoid_1.tmp_1 sigmoid_1.tmp_0 0=1
BinaryOp                 p2o.Mul.0                2 1 sigmoid_1.tmp_0 relu_267.tmp_0_splitncnn_0 p2o.Mul.1 0=2
Interp                   p2o.Resize.28            1 1 p2o.Mul.1 bilinear_interp_v2_31.tmp_0 0=2 1=2.000000e+00 2=2.000000e+00
Convolution              p2o.Conv.300             1 1 bilinear_interp_v2_31.tmp_0 conv2d_635.tmp_0 0=72 1=5 4=2 5=1 6=259200
Split                    splitncnn_137            1 2 conv2d_635.tmp_0 conv2d_635.tmp_0_splitncnn_0 conv2d_635.tmp_0_splitncnn_1
Crop                     p2o.Slice.44             1 1 conv2d_635.tmp_0_splitncnn_1 conv2d_635.tmp_1_slice_0 -23309=1,0 -23310=1,36 -23311=1,0
BatchNorm                p2o.BatchNormalization.298 1 1 conv2d_635.tmp_1_slice_0 batch_norm_305.tmp_2 0=36
Crop                     p2o.Slice.45             1 1 conv2d_635.tmp_0_splitncnn_0 conv2d_635.tmp_1_slice_1 -23309=1,36 -23310=1,72 -23311=1,0
InstanceNorm             p2o.InstanceNormalization.0 1 1 conv2d_635.tmp_1_slice_1 instance_norm_0.tmp_2 0=36 1=1.000000e-05
Concat                   p2o.Concat.28            2 1 batch_norm_305.tmp_2 instance_norm_0.tmp_2 p2o.Concat.29
ReLU                     p2o.Relu.266             1 1 p2o.Concat.29 relu_269.tmp_0
Interp                   p2o.Resize.29            1 1 relu_269.tmp_0 bilinear_interp_v2_32.tmp_0 0=2 1=2.000000e+00 2=2.000000e+00
Convolution              p2o.Conv.301             1 1 bilinear_interp_v2_32.tmp_0 conv2d_636.tmp_0 0=36 1=5 4=2 5=1 6=64800
Split                    splitncnn_138            1 2 conv2d_636.tmp_0 conv2d_636.tmp_0_splitncnn_0 conv2d_636.tmp_0_splitncnn_1
Crop                     p2o.Slice.46             1 1 conv2d_636.tmp_0_splitncnn_1 conv2d_636.tmp_1_slice_0 -23309=1,0 -23310=1,18 -23311=1,0
BatchNorm                p2o.BatchNormalization.299 1 1 conv2d_636.tmp_1_slice_0 batch_norm_306.tmp_2 0=18
Crop                     p2o.Slice.47             1 1 conv2d_636.tmp_0_splitncnn_0 conv2d_636.tmp_1_slice_1 -23309=1,18 -23310=1,36 -23311=1,0
InstanceNorm             p2o.InstanceNormalization.1 1 1 conv2d_636.tmp_1_slice_1 instance_norm_1.tmp_2 0=18 1=1.000000e-05
Concat                   p2o.Concat.30            2 1 batch_norm_306.tmp_2 instance_norm_1.tmp_2 p2o.Concat.31
ReLU                     p2o.Relu.267             1 1 p2o.Concat.31 relu_270.tmp_0
Interp                   p2o.Resize.30            1 1 x_splitncnn_2 bilinear_interp_v2_33.tmp_0 0=2 1=5.000000e-01 2=5.000000e-01
Interp                   p2o.Resize.31            1 1 x_splitncnn_1 bilinear_interp_v2_34.tmp_0 0=2 1=2.500000e-01 2=2.500000e-01
Convolution              p2o.Conv.302             1 1 relu_0.tmp_0_splitncnn_0 conv2d_637.tmp_0 0=32 1=1 5=1 6=2048
Split                    splitncnn_139            1 2 conv2d_637.tmp_0 conv2d_637.tmp_0_splitncnn_0 conv2d_637.tmp_0_splitncnn_1
Crop                     p2o.Slice.48             1 1 conv2d_637.tmp_0_splitncnn_1 conv2d_637.tmp_1_slice_0 -23309=1,0 -23310=1,16 -23311=1,0
BatchNorm                p2o.BatchNormalization.300 1 1 conv2d_637.tmp_1_slice_0 batch_norm_307.tmp_2 0=16
Crop                     p2o.Slice.49             1 1 conv2d_637.tmp_0_splitncnn_0 conv2d_637.tmp_1_slice_1 -23309=1,16 -23310=1,32 -23311=1,0
InstanceNorm             p2o.InstanceNormalization.2 1 1 conv2d_637.tmp_1_slice_1 instance_norm_2.tmp_2 0=16 1=1.000000e-05
Concat                   p2o.Concat.32            2 1 batch_norm_307.tmp_2 instance_norm_2.tmp_2 p2o.Concat.33
ReLU                     p2o.Relu.268             1 1 p2o.Concat.33 relu_271.tmp_0
Split                    splitncnn_140            1 2 relu_271.tmp_0 relu_271.tmp_0_splitncnn_0 relu_271.tmp_0_splitncnn_1
Concat                   p2o.Concat.34            2 1 bilinear_interp_v2_33.tmp_0 relu_271.tmp_0_splitncnn_1 p2o.Concat.35
Convolution              p2o.Conv.303             1 1 p2o.Concat.35 conv2d_638.tmp_0 0=32 1=3 3=2 4=1 5=1 6=10080
Split                    splitncnn_141            1 2 conv2d_638.tmp_0 conv2d_638.tmp_0_splitncnn_0 conv2d_638.tmp_0_splitncnn_1
Crop                     p2o.Slice.50             1 1 conv2d_638.tmp_0_splitncnn_1 conv2d_638.tmp_1_slice_0 -23309=1,0 -23310=1,16 -23311=1,0
BatchNorm                p2o.BatchNormalization.301 1 1 conv2d_638.tmp_1_slice_0 batch_norm_308.tmp_2 0=16
Crop                     p2o.Slice.51             1 1 conv2d_638.tmp_0_splitncnn_0 conv2d_638.tmp_1_slice_1 -23309=1,16 -23310=1,32 -23311=1,0
InstanceNorm             p2o.InstanceNormalization.3 1 1 conv2d_638.tmp_1_slice_1 instance_norm_3.tmp_2 0=16 1=1.000000e-05
Concat                   p2o.Concat.36            2 1 batch_norm_308.tmp_2 instance_norm_3.tmp_2 p2o.Concat.37
ReLU                     p2o.Relu.269             1 1 p2o.Concat.37 relu_272.tmp_0
Convolution              p2o.Conv.304             1 1 relu_260.tmp_0 conv2d_639.tmp_0 0=32 1=1 5=1 6=576
Split                    splitncnn_142            1 2 conv2d_639.tmp_0 conv2d_639.tmp_0_splitncnn_0 conv2d_639.tmp_0_splitncnn_1
Crop                     p2o.Slice.52             1 1 conv2d_639.tmp_0_splitncnn_1 conv2d_639.tmp_1_slice_0 -23309=1,0 -23310=1,16 -23311=1,0
BatchNorm                p2o.BatchNormalization.302 1 1 conv2d_639.tmp_1_slice_0 batch_norm_309.tmp_2 0=16
Crop                     p2o.Slice.53             1 1 conv2d_639.tmp_0_splitncnn_0 conv2d_639.tmp_1_slice_1 -23309=1,16 -23310=1,32 -23311=1,0
InstanceNorm             p2o.InstanceNormalization.4 1 1 conv2d_639.tmp_1_slice_1 instance_norm_4.tmp_2 0=16 1=1.000000e-05
Concat                   p2o.Concat.38            2 1 batch_norm_309.tmp_2 instance_norm_4.tmp_2 p2o.Concat.39
ReLU                     p2o.Relu.270             1 1 p2o.Concat.39 relu_273.tmp_0
Concat                   p2o.Concat.40            2 1 relu_272.tmp_0 relu_273.tmp_0 p2o.Concat.41
Convolution              p2o.Conv.305             1 1 p2o.Concat.41 conv2d_640.tmp_0 0=64 1=3 4=1 5=1 6=36864
Split                    splitncnn_143            1 2 conv2d_640.tmp_0 conv2d_640.tmp_0_splitncnn_0 conv2d_640.tmp_0_splitncnn_1
Crop                     p2o.Slice.54             1 1 conv2d_640.tmp_0_splitncnn_1 conv2d_640.tmp_1_slice_0 -23309=1,0 -23310=1,32 -23311=1,0
BatchNorm                p2o.BatchNormalization.303 1 1 conv2d_640.tmp_1_slice_0 batch_norm_310.tmp_2 0=32
Crop                     p2o.Slice.55             1 1 conv2d_640.tmp_0_splitncnn_0 conv2d_640.tmp_1_slice_1 -23309=1,32 -23310=1,64 -23311=1,0
InstanceNorm             p2o.InstanceNormalization.5 1 1 conv2d_640.tmp_1_slice_1 instance_norm_5.tmp_2 0=32 1=1.000000e-05
Concat                   p2o.Concat.42            2 1 batch_norm_310.tmp_2 instance_norm_5.tmp_2 p2o.Concat.43
ReLU                     p2o.Relu.271             1 1 p2o.Concat.43 relu_274.tmp_0
Interp                   p2o.Resize.32            1 1 relu_270.tmp_0 bilinear_interp_v2_35.tmp_0 0=2 1=2.000000e+00 2=2.000000e+00
Split                    splitncnn_144            1 2 bilinear_interp_v2_35.tmp_0 bilinear_interp_v2_35.tmp_0_splitncnn_0 bilinear_interp_v2_35.tmp_0_splitncnn_1
Concat                   p2o.Concat.44            3 1 relu_274.tmp_0 bilinear_interp_v2_35.tmp_0_splitncnn_1 bilinear_interp_v2_34.tmp_0 p2o.Concat.45
Convolution              p2o.Conv.306             1 1 p2o.Concat.45 conv2d_641.tmp_0 0=64 1=3 4=1 5=1 6=59328
Split                    splitncnn_145            1 2 conv2d_641.tmp_0 conv2d_641.tmp_0_splitncnn_0 conv2d_641.tmp_0_splitncnn_1
Crop                     p2o.Slice.56             1 1 conv2d_641.tmp_0_splitncnn_1 conv2d_641.tmp_1_slice_0 -23309=1,0 -23310=1,32 -23311=1,0
BatchNorm                p2o.BatchNormalization.304 1 1 conv2d_641.tmp_1_slice_0 batch_norm_311.tmp_2 0=32
Crop                     p2o.Slice.57             1 1 conv2d_641.tmp_0_splitncnn_0 conv2d_641.tmp_1_slice_1 -23309=1,32 -23310=1,64 -23311=1,0
InstanceNorm             p2o.InstanceNormalization.6 1 1 conv2d_641.tmp_1_slice_1 instance_norm_6.tmp_2 0=32 1=1.000000e-05
Concat                   p2o.Concat.46            2 1 batch_norm_311.tmp_2 instance_norm_6.tmp_2 p2o.Concat.47
ReLU                     p2o.Relu.272             1 1 p2o.Concat.47 relu_275.tmp_0
Convolution              p2o.Conv.307             1 1 relu_275.tmp_0 conv2d_642.tmp_0 0=64 1=3 4=1 5=1 6=36864
Split                    splitncnn_146            1 2 conv2d_642.tmp_0 conv2d_642.tmp_0_splitncnn_0 conv2d_642.tmp_0_splitncnn_1
Crop                     p2o.Slice.58             1 1 conv2d_642.tmp_0_splitncnn_1 conv2d_642.tmp_1_slice_0 -23309=1,0 -23310=1,32 -23311=1,0
BatchNorm                p2o.BatchNormalization.305 1 1 conv2d_642.tmp_1_slice_0 batch_norm_312.tmp_2 0=32
Crop                     p2o.Slice.59             1 1 conv2d_642.tmp_0_splitncnn_0 conv2d_642.tmp_1_slice_1 -23309=1,32 -23310=1,64 -23311=1,0
InstanceNorm             p2o.InstanceNormalization.7 1 1 conv2d_642.tmp_1_slice_1 instance_norm_7.tmp_2 0=32 1=1.000000e-05
Concat                   p2o.Concat.48            2 1 batch_norm_312.tmp_2 instance_norm_7.tmp_2 p2o.Concat.49
ReLU                     p2o.Relu.273             1 1 p2o.Concat.49 relu_276.tmp_0
Convolution              p2o.Conv.308             1 1 relu_276.tmp_0 conv2d_643.tmp_0 0=32 1=3 4=1 5=1 6=18432
Split                    splitncnn_147            1 2 conv2d_643.tmp_0 conv2d_643.tmp_0_splitncnn_0 conv2d_643.tmp_0_splitncnn_1
Crop                     p2o.Slice.60             1 1 conv2d_643.tmp_0_splitncnn_1 conv2d_643.tmp_1_slice_0 -23309=1,0 -23310=1,16 -23311=1,0
BatchNorm                p2o.BatchNormalization.306 1 1 conv2d_643.tmp_1_slice_0 batch_norm_313.tmp_2 0=16
Crop                     p2o.Slice.61             1 1 conv2d_643.tmp_0_splitncnn_0 conv2d_643.tmp_1_slice_1 -23309=1,16 -23310=1,32 -23311=1,0
InstanceNorm             p2o.InstanceNormalization.8 1 1 conv2d_643.tmp_1_slice_1 instance_norm_8.tmp_2 0=16 1=1.000000e-05
Concat                   p2o.Concat.50            2 1 batch_norm_313.tmp_2 instance_norm_8.tmp_2 p2o.Concat.51
ReLU                     p2o.Relu.274             1 1 p2o.Concat.51 relu_277.tmp_0
Interp                   p2o.Resize.33            1 1 relu_277.tmp_0 bilinear_interp_v2_36.tmp_0 0=2 1=2.000000e+00 2=2.000000e+00
Concat                   p2o.Concat.52            2 1 bilinear_interp_v2_36.tmp_0 relu_271.tmp_0_splitncnn_0 p2o.Concat.53
Convolution              p2o.Conv.309             1 1 p2o.Concat.53 conv2d_644.tmp_0 0=64 1=3 4=1 5=1 6=36864
Split                    splitncnn_148            1 2 conv2d_644.tmp_0 conv2d_644.tmp_0_splitncnn_0 conv2d_644.tmp_0_splitncnn_1
Crop                     p2o.Slice.62             1 1 conv2d_644.tmp_0_splitncnn_1 conv2d_644.tmp_1_slice_0 -23309=1,0 -23310=1,32 -23311=1,0
BatchNorm                p2o.BatchNormalization.307 1 1 conv2d_644.tmp_1_slice_0 batch_norm_314.tmp_2 0=32
Crop                     p2o.Slice.63             1 1 conv2d_644.tmp_0_splitncnn_0 conv2d_644.tmp_1_slice_1 -23309=1,32 -23310=1,64 -23311=1,0
InstanceNorm             p2o.InstanceNormalization.9 1 1 conv2d_644.tmp_1_slice_1 instance_norm_9.tmp_2 0=32 1=1.000000e-05
Concat                   p2o.Concat.54            2 1 batch_norm_314.tmp_2 instance_norm_9.tmp_2 p2o.Concat.55
ReLU                     p2o.Relu.275             1 1 p2o.Concat.55 relu_278.tmp_0
Convolution              p2o.Conv.310             1 1 relu_278.tmp_0 conv2d_645.tmp_0 0=32 1=3 4=1 5=1 6=18432
Split                    splitncnn_149            1 2 conv2d_645.tmp_0 conv2d_645.tmp_0_splitncnn_0 conv2d_645.tmp_0_splitncnn_1
Crop                     p2o.Slice.64             1 1 conv2d_645.tmp_0_splitncnn_1 conv2d_645.tmp_1_slice_0 -23309=1,0 -23310=1,16 -23311=1,0
BatchNorm                p2o.BatchNormalization.308 1 1 conv2d_645.tmp_1_slice_0 batch_norm_315.tmp_2 0=16
Crop                     p2o.Slice.65             1 1 conv2d_645.tmp_0_splitncnn_0 conv2d_645.tmp_1_slice_1 -23309=1,16 -23310=1,32 -23311=1,0
InstanceNorm             p2o.InstanceNormalization.10 1 1 conv2d_645.tmp_1_slice_1 instance_norm_10.tmp_2 0=16 1=1.000000e-05
Concat                   p2o.Concat.56            2 1 batch_norm_315.tmp_2 instance_norm_10.tmp_2 p2o.Concat.57
ReLU                     p2o.Relu.276             1 1 p2o.Concat.57 relu_279.tmp_0
Convolution              p2o.Conv.311             1 1 relu_279.tmp_0 conv2d_646.tmp_0 0=32 1=3 4=1 5=1 6=9216
Split                    splitncnn_150            1 2 conv2d_646.tmp_0 conv2d_646.tmp_0_splitncnn_0 conv2d_646.tmp_0_splitncnn_1
Crop                     p2o.Slice.66             1 1 conv2d_646.tmp_0_splitncnn_1 conv2d_646.tmp_1_slice_0 -23309=1,0 -23310=1,16 -23311=1,0
BatchNorm                p2o.BatchNormalization.309 1 1 conv2d_646.tmp_1_slice_0 batch_norm_316.tmp_2 0=16
Crop                     p2o.Slice.67             1 1 conv2d_646.tmp_0_splitncnn_0 conv2d_646.tmp_1_slice_1 -23309=1,16 -23310=1,32 -23311=1,0
InstanceNorm             p2o.InstanceNormalization.11 1 1 conv2d_646.tmp_1_slice_1 instance_norm_11.tmp_2 0=16 1=1.000000e-05
Concat                   p2o.Concat.58            2 1 batch_norm_316.tmp_2 instance_norm_11.tmp_2 p2o.Concat.59
ReLU                     p2o.Relu.277             1 1 p2o.Concat.59 relu_280.tmp_0
Convolution              p2o.Conv.312             1 1 relu_280.tmp_0 conv2d_647.tmp_0 0=32 1=3 4=1 5=1 6=9216
Split                    splitncnn_151            1 2 conv2d_647.tmp_0 conv2d_647.tmp_0_splitncnn_0 conv2d_647.tmp_0_splitncnn_1
Crop                     p2o.Slice.68             1 1 conv2d_647.tmp_0_splitncnn_1 conv2d_647.tmp_1_slice_0 -23309=1,0 -23310=1,16 -23311=1,0
BatchNorm                p2o.BatchNormalization.310 1 1 conv2d_647.tmp_1_slice_0 batch_norm_317.tmp_2 0=16
Crop                     p2o.Slice.69             1 1 conv2d_647.tmp_0_splitncnn_0 conv2d_647.tmp_1_slice_1 -23309=1,16 -23310=1,32 -23311=1,0
InstanceNorm             p2o.InstanceNormalization.12 1 1 conv2d_647.tmp_1_slice_1 instance_norm_12.tmp_2 0=16 1=1.000000e-05
Concat                   p2o.Concat.60            2 1 batch_norm_317.tmp_2 instance_norm_12.tmp_2 p2o.Concat.61
ReLU                     p2o.Relu.278             1 1 p2o.Concat.61 relu_281.tmp_0
Convolution              p2o.Conv.313             1 1 bilinear_interp_v2_35.tmp_0_splitncnn_0 conv2d_648.tmp_0 0=32 1=5 4=2 5=1 6=28800
Split                    splitncnn_152            1 2 conv2d_648.tmp_0 conv2d_648.tmp_0_splitncnn_0 conv2d_648.tmp_0_splitncnn_1
Crop                     p2o.Slice.70             1 1 conv2d_648.tmp_0_splitncnn_1 conv2d_648.tmp_1_slice_0 -23309=1,0 -23310=1,16 -23311=1,0
BatchNorm                p2o.BatchNormalization.311 1 1 conv2d_648.tmp_1_slice_0 batch_norm_318.tmp_2 0=16
Crop                     p2o.Slice.71             1 1 conv2d_648.tmp_0_splitncnn_0 conv2d_648.tmp_1_slice_1 -23309=1,16 -23310=1,32 -23311=1,0
InstanceNorm             p2o.InstanceNormalization.13 1 1 conv2d_648.tmp_1_slice_1 instance_norm_13.tmp_2 0=16 1=1.000000e-05
Concat                   p2o.Concat.62            2 1 batch_norm_318.tmp_2 instance_norm_13.tmp_2 p2o.Concat.63
ReLU                     p2o.Relu.279             1 1 p2o.Concat.63 relu_282.tmp_0
Interp                   p2o.Resize.35            1 1 relu_282.tmp_0 bilinear_interp_v2_38.tmp_0 0=2 1=2.000000e+00 2=2.000000e+00
Concat                   p2o.Concat.64            2 1 bilinear_interp_v2_38.tmp_0 relu_281.tmp_0 p2o.Concat.65
Convolution              p2o.Conv.314             1 1 p2o.Concat.65 conv2d_649.tmp_0 0=32 1=3 4=1 5=1 6=18432
Split                    splitncnn_153            1 2 conv2d_649.tmp_0 conv2d_649.tmp_0_splitncnn_0 conv2d_649.tmp_0_splitncnn_1
Crop                     p2o.Slice.72             1 1 conv2d_649.tmp_0_splitncnn_1 conv2d_649.tmp_1_slice_0 -23309=1,0 -23310=1,16 -23311=1,0
BatchNorm                p2o.BatchNormalization.312 1 1 conv2d_649.tmp_1_slice_0 batch_norm_319.tmp_2 0=16
Crop                     p2o.Slice.73             1 1 conv2d_649.tmp_0_splitncnn_0 conv2d_649.tmp_1_slice_1 -23309=1,16 -23310=1,32 -23311=1,0
InstanceNorm             p2o.InstanceNormalization.14 1 1 conv2d_649.tmp_1_slice_1 instance_norm_14.tmp_2 0=16 1=1.000000e-05
Concat                   p2o.Concat.66            2 1 batch_norm_319.tmp_2 instance_norm_14.tmp_2 p2o.Concat.67
ReLU                     p2o.Relu.280             1 1 p2o.Concat.67 relu_283.tmp_0
Interp                   p2o.Resize.36            1 1 relu_283.tmp_0 bilinear_interp_v2_39.tmp_0 0=2 1=2.000000e+00 2=2.000000e+00
Concat                   p2o.Concat.68            2 1 bilinear_interp_v2_39.tmp_0 x_splitncnn_0 p2o.Concat.69
Convolution              p2o.Conv.315             1 1 p2o.Concat.69 conv2d_650.tmp_0 0=16 1=3 4=1 5=1 6=5040
Split                    splitncnn_154            1 2 conv2d_650.tmp_0 conv2d_650.tmp_0_splitncnn_0 conv2d_650.tmp_0_splitncnn_1
Crop                     p2o.Slice.74             1 1 conv2d_650.tmp_0_splitncnn_1 conv2d_650.tmp_1_slice_0 -23309=1,0 -23310=1,8 -23311=1,0
BatchNorm                p2o.BatchNormalization.313 1 1 conv2d_650.tmp_1_slice_0 batch_norm_320.tmp_2 0=8
Crop                     p2o.Slice.75             1 1 conv2d_650.tmp_0_splitncnn_0 conv2d_650.tmp_1_slice_1 -23309=1,8 -23310=1,16 -23311=1,0
InstanceNorm             p2o.InstanceNormalization.15 1 1 conv2d_650.tmp_1_slice_1 instance_norm_15.tmp_2 0=8 1=1.000000e-05
Concat                   p2o.Concat.70            2 1 batch_norm_320.tmp_2 instance_norm_15.tmp_2 p2o.Concat.71
ReLU                     p2o.Relu.281             1 1 p2o.Concat.71 relu_284.tmp_0
Convolution              p2o.Conv.316             1 1 relu_284.tmp_0 sigmoid_2.tmp_0 0=1 1=1 5=1 6=16 9=4
